models/cnn_0_977.pt (torch, 377015 bytes, 6 tensors)

weight f4 [128, 1, 5, 5]
000000 bc dd 17 be eb 41 3a 3e 6d d3 63 3e 81 b8 82 bd
       -0.14830679 0.18189208 0.22248621 -0.063828476
000010 c3 f9 1a 3e 73 98 c4 3d b1 35 04 3e 1d fb 95 bd
       0.15134339 0.0959939 0.12911107 -0.07323287
000020 e2 09 cf bd 01 59 2a be da bc 00 be e1 e6 d1 3d
       -0.10109307 -0.16635515 -0.12572041 0.10249115
000030 33 01 31 3e d3 9f 54 be c7 b7 30 bd 20 c4 39 3e
       0.17285614 -0.20764093 -0.043144014 0.18141222
000040 59 db df 3c d6 07 88 3b c5 a0 e7 bd 97 36 a9 bd
       0.027326273 0.0041513247 -0.11309961 -0.08262365
000050 e3 10 35 3d 82 3c 73 3e 1c 20 85 3c 34 b4 00 be
       0.044205558 0.2375355 0.016250663 -0.12568742
000060 2c 73 02 3d 08 9a 21 3c 0e 94 42 3c 51 5b 55 bd
       0.031848118 0.009863384 0.011876119 -0.05208904
000070 1a fe 05 3e f7 ca 8f 3d 2f 8e d4 3d fb a9 36 3d
       0.13085213 0.07021134 0.10378682 0.0445957
000080 92 3b b9 3d 35 35 34 3e 32 69 32 3e b6 87 84 bc
       0.09044565 0.17598422 0.17422941 -0.016177993
000090 92 a9 37 3d ae da 17 3e e5 0d f9 3d 57 e6 e4 bd
       0.04483945 0.14829513 0.12160853 -0.11176746
0000a0 fa 28 80 bd db e5 a4 3d a9 11 c2 bd 9b 03 be 3d
       -0.06257816 0.08051654 -0.09476025 0.092780314
0000b0 c7 17 1c be 67 a8 f1 bd a8 ef 1c be e7 a3 86 be
       -0.15243445 -0.11799698 -0.15325797 -0.26296923
0000c0 35 16 6c bd 52 4e 20 be eb 26 32 3e 1c e9 62 3e
       -0.057638366 -0.15654877 0.17397659 0.22159237
0000d0 7e b7 81 3e ca 5c 28 3d 02 9d 9c 3c 5b ef ea bd
       0.25335306 0.041104116 0.019117836 -0.11471435
0000e0 d4 73 55 3e 0f bb 78 bd fb 8d 80 bb b2 ea 1b be
       0.20844966 -0.060725268 -0.0039231754 -0.15226248
0000f0 f1 4d 0d be db 23 b3 3c 6e 94 18 be d7 e7 c4 bd
       -0.13799264 0.021867683 -0.14900371 -0.096145324
000100 9e 15 1a 3d 6a 53 ae bd f1 0e 1c be 91 83 c6 bc
       0.037618272 -0.08512004 -0.15240075 -0.024232658
000110 31 33 0a bd b2 a0 39 3c cb 59 a6 3d 9e 53 08 3d
       -0.033740226 0.011329817 0.081225954 0.03328287
000120 f5 05 61 be 01 04 4c be 52 a9 0b be b0 60 da bb
       -0.21974929 -0.19923402 -0.1363881 -0.006664358
000130 68 55 cc bc 47 0c 65 bd 50 5d 79 3e 08 4d 1c 3e
       -0.024943069 -0.05591991 0.24352002 0.1526376
000140 48 93 f4 bb cd ca 75 3e 33 84 22 bd 96 ea 18 3d
       -0.0074638464 0.24003144 -0.039676856 0.037333094
000150 1d 50 31 3e 4a 67 24 3d c1 07 2f be 31 72 9a bd
       0.17315717 0.040137567 -0.17092802 -0.075413115
000160 f4 af 58 3e 9d 24 2b 3e 3d 30 98 ba 02 27 3b 3a
       0.21160871 0.16713186 -0.0011611056 0.00071392965
000170 36 46 55 bc 40 d3 43 be 6d 34 3c bd 02 6a ad 3c
       -0.013017228 -0.19123554 -0.045948435 0.021168713
000180 f2 61 ba bd 21 d0 65 bd 62 5f 82 be b8 4b d2 bc
       -0.09100713 -0.05610669 -0.25463396 -0.025670871
000190 c8 6b 09 be ea a9 9d bd 8b 62 a2 bd 09 3d c3 3c
       -0.13420022 -0.07698424 -0.07928952 0.023832815
0001a0 f4 06 76 3e 1a eb af 3d 1c 64 a7 3d 91 3a 8b bb
       0.2402609 0.08589764 0.08173391 -0.004248925
0001b0 8f 4e 39 3e 80 ba 0b 3e 93 03 1b be e4 88 13 bc
       0.18096374 0.13645363 -0.15138082 -0.009004805
0001c0 74 72 0c be 74 c3 c7 3d 11 63 2e be ef 2b 60 3e
       -0.13715535 0.097540766 -0.17029978 0.2189176
0001d0 d4 8a 4f 3e 01 7a 24 be 77 9f a5 3d d0 f0 5a 3e
       0.20267802 -0.16062166 0.08087056 0.21380925
0001e0 a2 f7 c1 3d 8c 14 bc bd 3b df 37 bd 3a a6 03 be
       0.0947106 -0.091836065 -0.044890624 -0.12856379
0001f0 21 8f 62 3d 2f 1c 03 3e ed ad aa bd 20 0c 4d 3e
       0.05531228 0.1280372 -0.08333955 0.20024157
000200 0a b4 ea 3d a1 34 16 3d fa 4e ad 3d b6 80 1c be
       0.11460121 0.036671285 0.08462329 -0.15283474
000210 95 28 9b 3d 4f 5b 38 be b6 04 27 be 70 91 9e 3d
       0.075761 -0.18003581 -0.16310391 0.07742584
000220 1a 54 6c be e4 3c 68 be 15 30 66 3d a7 7c 0b be
       -0.23078957 -0.22679478 0.0561982 -0.1362177
000230 0f aa 46 be d5 76 0a bd f0 cc 62 be a2 b2 16 3e
       -0.1940081 -0.033804733 -0.2214849 0.1471658
000240 96 4d bf 3d e1 92 3a be 52 2d 29 bc ea ec e7 bc
       0.0934097 -0.18220092 -0.010325747 -0.028311212
000250 08 f2 8d bd 75 fb 61 3d 1d df 99 ba be e6 de 3d
       -0.069309294 0.05517145 -0.0011739467 0.10883854
000260 02 e7 22 3e af a4 d1 3d b9 64 5a bd 2b a0 d3 3d
       0.15908435 0.10236489 -0.053318713 0.10333284
000270 87 54 70 3d 21 16 89 bd 03 67 be bd 79 ea 5d bd
       0.05867436 -0.06693674 -0.09296992 -0.05417869
000280 cd 99 26 3e 5c 24 42 3e a4 15 55 bd 22 63 9e 3d
       0.16269608 0.18959183 -0.05202259 0.07733752
000290 56 ec 1a 3e 7b 82 6c 3e 15 51 bc 3a 13 4b 31 3e
       0.15129218 0.2309665 0.0014367426 0.17313795
0002a0 52 d7 07 3e 8a 07 0d bd cf 19 a6 3b 26 c0 6e bd
       0.13265732 -0.034431018 0.0050689946 -0.058288716
0002b0 b1 bd 56 be d5 db 26 be 97 10 25 be fb 99 b4 ba
       -0.20970799 -0.16294797 -0.1611961 -0.00137788
0002c0 5b f0 29 3e f6 a7 b5 3d 9b ed ec bd 6d 3a 2f 3e
       0.16595595 0.08869927 -0.11568757 0.17112131
0002d0 7e 2a df 3d fd c7 33 3e 4d 6e 9b bc 4e 8a 72 3e
       0.108967766 0.17556758 -0.018973494 0.23685572
0002e0 17 10 44 3e dc 13 ee 3d 07 fa 65 3e 95 45 e3 bb
       0.19146763 0.116248816 0.22458659 -0.006935785
0002f0 85 5b 0f 3e fc 34 66 3e 4e f9 ca 3d b0 5f 2b be
       0.13999756 0.2248115 0.09910832 -0.1673572
000300 55 fa 17 be 16 cf 2b 3e 00 68 39 3e e4 90 30 be
       -0.14841588 0.16778216 0.18106079 -0.17242771
000310 bd b6 bd 3c 70 2e 49 be b5 1e b9 3c c0 3c 20 3e
       0.023158425 -0.19646621 0.02259765 0.15648174
000320 3b f3 38 be 93 21 dc bd d1 12 a7 bd 74 d5 f0 bd
       -0.18061535 -0.10748591 -0.08157886 -0.11759463
000330 38 23 f0 3d 55 32 3a be d5 23 52 be eb a1 1e bd
       0.117254674 -0.18183263 -0.20521481 -0.038728636
000340 4f 5d 84 be 49 68 65 be 22 06 6c 3e 07 b4 aa bd
       -0.2585244 -0.22403063 0.23049214 -0.08335119
000350 33 c2 20 be 09 b5 b0 3d 25 9d 27 be 70 c1 1d 3d
       -0.15699081 0.0862828 -0.1636854 0.038514555
000360 c5 b5 e7 3d 39 79 14 3e 19 04 ad bd 0a cf e1 3c
       0.11313967 0.14499368 -0.08448047 0.027564544
000370 8a 20 6f 3e 87 c8 61 3d 94 c1 70 3e a3 1f a2 3d
       0.23352256 0.05512288 0.23511344 0.079161905
000380 c6 fa ae 3d f4 03 ed bc 6b f0 b3 bd a2 6c c7 bd
       0.08543925 -0.028932549 -0.087860905 -0.09737517
000390 63 1c cc bb 2d fc 98 3a a7 69 72 3c 96 70 14 be
       -0.00622897 0.0011671834 0.014795697 -0.14496073
0003a0 ed 75 93 be 7a 45 51 bd 0c 4a 9b bc 8c 2c 56 bd
       -0.28800908 -0.05109165 -0.018956207 -0.052288577
0003b0 8f 2d dc bd 79 a9 17 3e 73 3b 4e be 41 bb f9 bd
       -0.10750877 0.14810742 -0.20139866 -0.12193919
0003c0 d8 53 8d 3d 8f 17 60 3e eb cf e2 3c 49 09 4e 3e
       0.069007576 0.21883987 0.027687034 0.2012073
0003d0 b4 1a 8e bd bb 28 40 3e ac 10 84 3d 96 72 af 3d
       -0.06938687 0.18765537 0.064484924 0.085667774
0003e0 67 16 14 3e 3d df 5c 3e ce 7c 36 bd 32 d3 d5 3c
       0.14461671 0.21569534 -0.044552617 0.026101682
0003f0 80 db 94 be 2e 22 fb bd 71 e4 26 be 4d 48 d5 3c
       -0.29073715 -0.12262379 -0.16298081 0.026035452

bias f4 [128]
000000 2f 70 9e bd 99 be a7 3d cb db 42 3e 81 e4 68 ba
       -0.07736241 0.081906505 0.19029157 -0.00088841474
000010 e5 a5 ad bd c9 a9 fe 3d a1 7e 8a 3d d8 e6 f2 3c
       -0.084789075 0.12434728 0.06762434 0.02965109
000020 2d 6b 8d 3b 20 cf 7f bd c9 cd d1 3d 7f 2c b9 bc
       0.004315755 -0.06245339 0.102443285 -0.022604225
000030 3c ca 46 3b 5b de 76 bd 5c db 14 3e cc c6 92 3b
       0.0030332943 -0.06027065 0.14536804 0.004479265
000040 0b 85 75 bd bf b4 90 bd 9b 97 a6 3c cd 99 1f bd
       -0.059941333 -0.070657246 0.020335963 -0.038965035
000050 3d 98 2d be c2 35 88 bd bd c1 bb 3c 88 30 00 be
       -0.16952606 -0.066508785 0.02291953 -0.12518513
000060 28 b4 28 3e 44 af fa bd 7c 46 0a bd 59 d6 26 be
       0.16474974 -0.122404605 -0.033758625 -0.16292705
000070 5c a7 76 bd 51 22 1c be 84 aa 3f bc cc d7 06 3e
       -0.0602182 -0.15247466 -0.011698369 0.13168257
000080 0d 70 0f 3d eb 86 07 3e e8 5b f1 3b a6 0e 93 3d
       0.03501897 0.13235061 0.0073656924 0.07180528
000090 00 18 50 3e 5a f7 9d 3c bb d7 56 bd 17 69 c1 3d
       0.20321655 0.019282985 -0.05245183 0.094438724
0000a0 aa ea 05 bd 02 df d3 bd 76 83 05 3c ae 0c 27 3e
       -0.032694496 -0.1034527 0.0081490185 0.1631343
0000b0 8e b4 18 3e ef 8b 18 3e b5 fb 36 3d 0f 3d 4d bc
       0.14912626 0.1489713 0.04467364 -0.012526765
0000c0 18 05 00 3e c0 0a 03 3e 44 af 13 3e 9b 52 14 bc
       0.12501943 0.1279707 0.14422327 -0.009052898
0000d0 48 56 d5 bd 7b 13 78 bd 65 64 0d be 2e 20 f2 bd
       -0.104168475 -0.060565453 -0.13807829 -0.11822544
0000e0 44 03 9c bd e5 31 2e bd 94 5f bc 3d b2 d3 c4 bd
       -0.0761781 -0.042528052 0.091979176 -0.0961069
0000f0 db d7 c8 bc 76 50 5a 3e a3 ee a8 3d a0 fb b5 3b
       -0.02451699 0.21319756 0.08248641 0.0055536777
000100 74 96 bb 3d 6d 72 37 39 ad 89 7b bd 47 61 36 3c
       0.09159556 0.00017494867 -0.061410595 0.011131591
000110 0f 5c ce bd e0 40 92 bd fa a5 db 3d 56 03 2f 3e
       -0.100761525 -0.0714128 0.10725017 0.17091116
000120 5d 25 f5 3a 8a df e1 bd 19 f0 83 3c b6 43 0a be
       0.0018703152 -0.11028965 0.016105698 -0.13502392
000130 57 73 e1 3d 2e d2 c4 bd 83 1a 2d be 48 6d 87 bd
       0.110083275 -0.09610401 -0.16904645 -0.066126406
000140 3a 6e 13 be b3 44 e8 3a f9 5f f1 bc 2a c5 35 3d
       -0.14397517 0.0017720669 -0.029464709 0.044377483
000150 72 d6 91 3d b4 61 d3 ba 07 04 1e 3e 2d 76 26 be
       0.0712098 -0.001612714 0.15431224 -0.16256018
000160 d7 86 19 3d 61 fd 21 3c 03 25 5e 3e 51 ce eb 3d
       0.03748211 0.00988707 0.21693806 0.11513961
000170 38 6d 7f bc 7f da 01 3d db a4 68 bd 6c 4b 04 be
       -0.015590005 0.031702515 -0.056797843 -0.12919396
000180 66 23 d4 3c 2c 99 e9 bc 1c 12 6b bd 61 c4 03 3e
       0.025895786 -0.02851542 -0.057390317 0.12867881
000190 39 d4 4b 3e 20 ea 25 3c 7d 90 a3 3c 85 ec 56 bd
       0.19905175 0.0101266205 0.019966358 -0.052471656
0001a0 0a 82 ae bd 65 23 fe 3d ec 78 42 bd 63 1b df bc
       -0.08520897 0.12409095 -0.0474786 -0.027234739
0001b0 56 74 91 bd c1 db f6 bd e3 08 5f bd 32 dd 04 3e
       -0.071022674 -0.120536335 -0.054451834 0.12975004
0001c0 9a 63 eb 3b 38 3b b8 3d 01 16 32 3d a0 21 a8 3c
       0.0071835043 0.0899567 0.043478016 0.020523846
0001d0 cc 04 d2 bd 16 9a 83 bc e4 02 04 3d bd f2 d7 bd
       -0.10254821 -0.016064685 0.03222932 -0.105443455
0001e0 96 12 8d bc 2f de 98 bc 62 54 c9 bd 28 6a c1 bd
       -0.017220777 -0.018660633 -0.09830548 -0.09444076
0001f0 87 d0 a3 3c d6 fe ae 3b ef 4b 1a bd bd f7 b3 bd
       0.019996895 0.0053404374 -0.037670072 -0.08787487

weight f4 [64, 128, 3, 3]
000000 2d c3 86 3c 76 9e 3e 3d f8 74 a7 bc ad d7 6b 3c
       0.016450489 0.04653784 -0.020441517 0.014394683
000010 51 b1 06 bd b8 ff 11 bd 3e e5 01 3c 7e 0d 23 bd
       -0.032883946 -0.035644263 0.007928191 -0.03980779
000020 0b a8 5b bc 33 d6 71 bc 89 44 68 bb a6 23 3d bd
       -0.013406764 -0.014760542 -0.003544124 -0.046176575
000030 9e df fe bc 5e a5 87 bd 94 1a b3 3a 9e df e8 bb
       -0.031112488 -0.06623338 0.0013664537 -0.0071067354
000040 45 27 d5 ba 24 77 db 3c e5 75 89 bc 5f 84 a5 3b
       -0.0016262314 0.02679021 -0.01677985 0.0050511803
000050 c3 92 8b bc 41 7b 0c bd 2a 67 67 bd 4a 58 49 bd
       -0.017037755 -0.03429723 -0.05649487 -0.049156465
000060 c5 fa 29 bd e6 80 63 bd b7 4c c6 bb 2a 10 70 bc
       -0.041498918 -0.05554285 -0.0060516256 -0.014652291
000070 a3 81 43 bd 69 9d 2a 3c 1c c9 d9 bc ff 21 92 bc
       -0.047731053 0.010413506 -0.026585154 -0.017838476
000080 ca 64 2e 3d a9 18 31 bb 06 f0 dd bb 47 95 06 3c
       0.04257659 -0.0027022755 -0.006772998 0.008214301
000090 04 22 33 3d d0 8d 8e bc 4a 5f f9 ba d1 59 9f 3c
       0.04373361 -0.017401606 -0.0019025591 0.019452007
0000a0 44 da 23 bd bb 34 c7 3a 4f 6d f7 3c fd 02 ed 3c
       -0.040003076 0.001519821 0.03020349 0.028932089
0000b0 24 13 f3 36 06 c4 b2 bc 2b 4a 11 bc 38 8d 0e bd
       7.2441926e-06 -0.021821987 -0.008867781 -0.034802645
0000c0 57 6a 81 bc cf 12 99 3c 33 af 56 bd 98 2f 51 b8
       -0.015797777 0.018685726 -0.052413177 -4.9873808e-05
0000d0 3f 48 1b bd 56 65 23 bc 1e 6e 0e 3b e5 b9 10 bc
       -0.037910696 -0.009972891 0.0021733115 -0.008833383
0000e0 c1 1c 8c 3c e0 c0 c6 bc 02 76 a6 3c a2 fe fe bb
       0.017103555 -0.024261892 0.020319942 -0.0077818194
0000f0 cc dd ae 3b 18 b3 a4 ba c4 ce 06 bc f8 14 91 3c
       0.005336499 -0.0012565581 -0.008228008 0.017710194
000100 7b 15 04 bd f0 77 86 bc 8d b7 17 3d 0c 9a ee 3c
       -0.032247048 -0.016414613 0.037040282 0.02912619
000110 69 83 4d 3c 23 20 cd 3c d1 3a 1b 3d ae 1f 11 3d
       0.012543538 0.025039738 0.03789789 0.035430603
000120 d7 01 81 bd 3d dc 4d bc 2f 26 2d bc 6a ed 1a be
       -0.06299179 -0.012564716 -0.010568186 -0.15129629
000130 67 21 98 bd 44 c9 de 3c e6 7b 3b bd 73 d3 0c bd
       -0.07428246 0.02719558 -0.045772456 -0.03438134
000140 6f 6a ef ba cd ce 04 bd 54 97 b2 3b 17 a3 3d 3d
       -0.0018265973 -0.032423783 0.0054501686 0.046298113
000150 15 a9 a0 bd 03 29 10 bd 81 5e 7b 3d a1 f9 57 bd
       -0.0784475 -0.03519536 0.061369423 -0.0527283
000160 4c 7a e4 bc 39 55 80 3d 97 8b 84 3c 5b 9f 4e 3c
       -0.027890347 0.06266255 0.016179843 0.0126112355
000170 26 b5 c2 3b da 43 71 bd f1 1c 6e bb 8e 19 ad 3c
       0.0059420047 -0.0589026 -0.0036333168 0.02113035
000180 84 92 12 bd 24 b4 44 3d 5e 04 b0 3c 22 8f 1a 3d
       -0.03578426 0.048023358 0.021486457 0.03773416
000190 2f 84 fb 3c f4 35 90 bc 04 18 a3 bb cd e6 73 bc
       0.030702678 -0.017603852 -0.004977228 -0.01488657
0001a0 fd 9d 50 3c f9 9a f6 3c ed d2 4c 3c 25 a1 17 3d
       0.01273298 0.030103194 0.0125014605 0.037018914
0001b0 d1 60 b4 3b c4 10 a5 bc b4 d4 90 bc d4 2b 3f 3d
       0.0055047055 -0.020149596 -0.01767955 0.046672657
0001c0 a0 6b ea 3a fb d0 f8 bb 50 c4 06 bd 2b de d2 3b
       0.0017884858 -0.007593272 -0.032902062 0.006435176
0001d0 0e 8e 7a bb 4d 2c 50 3d 48 5f e6 ba 00 50 57 3b
       -0.0038231644 0.0508235 -0.0017576003 0.003285408
0001e0 b8 3a 24 3d 2d 51 94 bb 5a 9a 8b b9 6a e7 03 3d
       0.04009506 -0.0045262785 -0.00026627147 0.032203116
0001f0 53 a6 95 3c b3 e0 d3 3c a8 b3 a3 bc e1 8e 0f bd
       0.018267786 0.02586398 -0.019983128 -0.03504837
000200 00 82 10 bd f8 b2 3d bc 7d 87 2d bd 58 ce 87 bc
       -0.035280228 -0.011578314 -0.04236554 -0.016577885
000210 5d 62 7e bc 7d 5f 80 bc f3 aa d6 bb 23 82 f6 3c
       -0.015526381 -0.015670532 -0.0065511405 0.03009135
000220 4c ad 40 3d a0 48 a0 bc bd e1 c8 bc cc 42 72 3c
       0.04704027 -0.01956588 -0.024521703 0.014786433
000230 fd 45 07 3d d4 97 c7 bc 46 d1 fb bc cd b7 0e 3d
       0.03302573 -0.02436439 -0.030739438 0.034843255
000240 9f 20 8f bc 7a ee 30 bd 74 2a 48 3c d9 7c 93 3c
       -0.01747161 -0.04319618 0.012217153 0.018003868
000250 51 b9 13 bd 17 3f b2 3c 16 8f be 3c cd 1f 49 3d
       -0.036065403 0.0217586 0.023261588 0.049102593
000260 7c 93 4a 3c 94 cc 77 3c 3e ae 27 bb 37 93 5d bd
       0.012364265 0.015124459 -0.0025586034 -0.054095473
000270 c9 07 c2 bb 6c 03 a8 3c c7 51 06 3b ea 85 a4 bc
       -0.005921338 0.020509444 0.002049552 -0.020083386
000280 58 c1 8e 3a d2 8d 03 3d 74 09 a4 bd f0 d6 9c bd
       0.0010891361 0.032117672 -0.080096155 -0.076581836
000290 f6 b2 fe 3b 8c 4c df bc fe 43 25 bd e7 01 c1 b9
       0.0077727986 -0.02725818 -0.040348046 -0.00036813246
0002a0 81 b0 f2 3a 3b 0e 4a bd f1 4c de bb 91 49 b5 3d
       0.0018515737 -0.049329977 -0.0067840745 0.08851922
0002b0 cd 28 01 3d 92 7a 94 3b a5 8d 74 3d b4 d8 36 3b
       0.03153305 0.004531213 0.059705395 0.0027900161
0002c0 ee 7a 0b bd eb 11 94 3d 29 6f b6 bb 4e ca 3c bc
       -0.03405278 0.0722998 -0.0055674505 -0.011522843
0002d0 e4 e5 5d 3d 85 9f 08 3d 9d ae c9 ba 9b 26 93 3c
       0.05417432 0.033355255 -0.0015387122 0.017962744
0002e0 c9 9d df 3c 43 12 77 3d 31 a1 d5 bb eb 23 fe 3b
       0.027296918 0.06032015 -0.0065194597 0.0077557466
0002f0 f5 64 fe 3c ef 4b 41 3b 8b a6 60 bb 6e 52 b8 bc
       0.031054 0.0029494723 -0.0034278955 -0.022500243
000300 d4 29 29 bd e1 94 fc bc e0 34 b4 3a 98 61 59 bd
       -0.041299656 -0.03083271 0.0013748668 -0.05307159
000310 a3 57 f6 bb 53 4f 35 3d d0 4c bc 3c 85 a5 9c 3b
       -0.0075177713 0.044265103 0.022985846 0.0047804737
000320 88 c8 43 3d 0e e3 4a 3c ad 35 ad 3c 8f 3a b8 3d
       0.047798663 0.012383236 0.021143759 0.08995544
000330 b3 b2 5b bc 79 d8 a3 3a 21 3d 80 3d 98 10 e9 3c
       -0.013409304 0.0012500427 0.062616594 0.028450295
000340 2b c9 4c bb f9 7a 77 3c a8 9b 1d bc 07 eb e3 3c
       -0.0031247835 0.015105003 -0.009619631 0.02782203
000350 2a 20 c3 3c 8c c7 05 3d 01 64 82 3c 02 5b 3a 3c
       0.023819048 0.032661006 0.015916826 0.011374237
000360 a6 df 74 3c ea af 8b bb 74 04 eb 3c 7f df 84 3b
       0.0149459 -0.004262914 0.028688647 0.004054963
000370 c1 cd 02 3d 7e 10 ca ba 3c b4 79 bc 16 e7 9d 3c
       0.031934503 -0.0015416292 -0.015240725 0.01927523
000380 d5 61 ef 3c c1 19 86 3d 9b 81 8f 3a 2e 09 1c bb
       0.029221455 0.06547881 0.001094866 -0.0023809182
000390 54 4a 8d 3c eb 09 84 bb 97 37 53 3c ec 66 78 3d
       0.017247356 -0.0040295026 0.012891672 0.06064503
0003a0 95 fb d6 bc 0f c8 85 bc 1a 89 d5 3c 03 55 8b 3c
       -0.02624301 -0.016330747 0.026066352 0.01700831
0003b0 ff 39 96 bd 5d 47 bd 3b c6 06 68 3d 51 c4 70 3c
       -0.073352806 0.0057763294 0.056647085 0.014695243
0003c0 81 66 20 bd 61 ae ba bc c5 ed 72 3d f8 c8 2b 3c
       -0.039160255 -0.022788228 0.059308786 0.010484926
0003d0 f4 3d f3 bc f0 9c 4e bd 4f 4f 56 3d 99 29 13 3c
       -0.029692627 -0.050442636 0.05232173 0.008982086
0003e0 5d 5e c2 bc da 1f e6 bb d1 30 d4 3c 41 33 cc ba
       -0.023726637 -0.00702284 0.025902184 -0.001557924
0003f0 b5 62 fc 3b 7f 81 9e 3c a1 af 27 bd 37 d5 08 3d
       0.0077021965 0.019348858 -0.040938977 0.033406463

bias f4 [64]
000000 75 bb f3 bc ef a9 c2 3c 6f 77 88 ba 7c 0d a5 3b
       -0.029752472 0.023762671 -0.001041157 0.005037008
000010 ea aa 42 3c 3b 45 f6 bc 49 cb f8 3b 18 58 3a ba
       0.011881569 -0.030062309 0.007592593 -0.0007108464
000020 3e 5a 24 3d 55 c9 e0 bc 1a a4 b2 3c 5b 17 e0 bb
       0.040125124 -0.027439753 0.021806765 -0.0068387217
000030 0c 1b 23 3a da 44 90 bc c3 db fe 3c 00 5e 58 3c
       0.0006221987 -0.017610956 0.03111065 0.013206005
000040 2a ec 41 3b 51 1f e7 bc 47 81 18 bc 78 cb 91 3b
       0.0029590228 -0.028213175 -0.009308166 0.004449304
000050 e3 7b b3 bc 7c 15 14 3c 28 d8 b1 bc 00 66 eb 3b
       -0.02190966 0.009038325 -0.021709517 0.00718379
000060 19 23 9c 3c bf 1f 2f 3d 53 b7 f4 39 a4 92 57 3d
       0.019059705 0.042754885 0.00046675894 0.05263008
000070 6c f0 22 bc e0 09 66 3c 16 0d d7 bc 17 c6 60 bc
       -0.009945016 0.01404044 -0.026251357 -0.013719103
000080 d3 aa f9 bc 8f 32 ce bc 8a 0f 86 3c 20 82 9e bc
       -0.030476963 -0.025170593 0.016364831 -0.019349158
000090 1b df a9 bc dc d4 93 3c 3b 2b 67 bc 2f e2 08 bd
       -0.020736268 0.018045835 -0.014109428 -0.03341883
0000a0 9b 34 59 bc 75 d9 d1 bc c4 f1 d2 ba 53 e4 ea ba
       -0.013257171 -0.025616387 -0.001609378 -0.0017920829
0000b0 8a 33 88 bb 1c 6e 00 3c 7a 01 76 bb 7d 41 2f bb
       -0.0041565346 0.007838752 -0.0037537501 -0.0026741915
0000c0 3f 11 28 bb 81 0f 47 bc 58 98 32 bc e8 04 17 bd
       -0.0025645045 -0.0121496925 -0.010900579 -0.036869913
0000d0 e3 96 08 3d ff 97 9b bc 2a 78 0c bd 1e 56 7b bb
       0.03334702 -0.018993376 -0.034294285 -0.003835089
0000e0 df e2 f3 38 e2 31 8e 3c 02 0d d9 bc 5a 16 0a 3d
       0.00011629401 0.01735777 -0.02649546 0.033712722
0000f0 77 1e 72 bc 4f e7 35 3c 92 02 d9 bc 76 eb 51 bc
       -0.014777771 0.011102512 -0.026490483 -0.012812486

weight f4 [10, 1600]
000000 8d c8 81 bc fc a8 3e 3a 96 95 0c bc d9 7e b6 3c
       -0.0158427 0.00072731054 -0.008580586 0.022277283
000010 bc 50 7f bc 41 dc 90 bc a5 ce e4 3b 13 ee 6f 3b
       -0.015583213 -0.01768315 0.0069826418 0.003661041
000020 68 84 b0 ba 67 f1 d0 bb c0 09 6c 3c 52 f3 8c bc
       -0.0013467195 -0.0063764337 0.014406621 -0.017205868
000030 f5 bf 5c bc c7 4a 82 bc b9 98 ab 3c 15 db 94 3c
       -0.0134735005 -0.015904797 0.020946847 0.018170873
000040 75 95 fe 3b 35 1e ca 3a 48 0a 53 bc e7 b8 73 bc
       0.0077692815 0.0015420379 -0.012880869 -0.014875627
000050 64 97 60 bb 05 ed 03 3d 62 62 3c 3c 6a d2 44 bc
       -0.0034269923 0.03220846 0.011498066 -0.012013057
000060 5b 80 ee bc 79 5a 2c 3c a7 d5 3d 3c d3 08 37 b9
       -0.029113939 0.010519617 0.011586583 -0.00017455527
000070 24 f6 01 3d 82 2a 94 3b 60 28 1a 3d be 22 8f 3c
       0.03172888 0.004521669 0.03763616 0.017472621
000080 4c 12 bb bc 9f 14 f3 bc 02 df 85 bc 00 d9 77 bc
       -0.022835873 -0.029672919 -0.01634169 -0.01512742
000090 1a 48 e1 bb 0b 09 a2 bc 53 7a 6b bc f8 a3 3f bc
       -0.0068750503 -0.019779703 -0.014372426 -0.011696808
0000a0 65 37 1d bc 1c 58 ff bb 15 ac 01 3d b8 05 72 bc
       -0.009595727 -0.007792486 0.03165825 -0.014771871
0000b0 fd 79 0a bc 73 a6 9e bc 3e 10 09 3d c4 2f 2d 3d
       -0.008451936 -0.019366479 0.033462755 0.04228188
0000c0 7a e8 e8 3b 7d c6 8d bb bb ac dd bc 8e 81 be bc
       0.0071077915 -0.00432664 -0.027059903 -0.023255136
0000d0 9d 46 4b 3c 7b 33 d0 3c 73 c1 7b bc 3f 61 11 39
       0.012406972 0.025415173 -0.015365946 0.00013864505
0000e0 1a df bb 3c 86 7d fa 3c 29 c8 4e 3b 09 92 af 3c
       0.022933532 0.030577432 0.003155241 0.02143194
0000f0 12 8f 75 bc c5 8b c7 3c a0 52 65 bc ee c4 f4 bc
       -0.014987724 0.02435864 -0.01399675 -0.02987906
000100 e1 d3 ef 3c ab 6e 61 3c 05 aa 67 bc 29 02 9a 3c
       0.029275836 0.013759295 -0.014139657 0.018799858
000110 eb 8e ce bc ee 1e 11 3c ef 8d cf 3b cd 44 ab bb
       -0.025214633 0.008857472 0.0063340585 -0.0052267076
000120 fd 98 c1 bb 18 70 f8 3c b1 37 87 3c f2 53 94 bc
       -0.00590813 0.030326888 0.016506048 -0.018106434
000130 c0 4f 0f bd b8 57 cb bc 95 ea de 3b e2 87 bc ba
       -0.034988165 -0.024822101 0.0068028667 -0.0014383758
000140 cf 05 47 3c f9 b4 1f 3c ec 1a 4c 3c 2d 72 8e 37
       0.012147381 0.009747737 0.012457591 1.6980886e-05
000150 c9 a9 29 3c ea 1f 53 3d 3b 2a 56 3c c1 bf 58 3c
       0.010355421 0.051544107 0.013071592 0.013229311
000160 2a c5 48 bc 06 60 bd 3c 72 1a 0b 3c 8a d5 3f 3c
       -0.012254039 0.023117077 0.008490192 0.0117086265
000170 59 93 d5 3c 4a be c6 3b 59 c4 f8 bb 63 6f bd 3c
       0.026071237 0.0060651647 -0.007591766 0.023124402
000180 42 0f ca 3b e0 35 8a bc e2 28 67 bb 29 94 79 bc
       0.0061663697 -0.016871393 -0.003527217 -0.015233078
000190 8f 7e 04 bb 80 0e 30 3c 91 b5 3d bc 1a 24 88 ba
       -0.0020217036 0.010745645 -0.011578933 -0.0010386736
0001a0 34 56 bd 3c af 2b da bb 93 0a c8 3b 2d ae 04 3d
       0.023112394 -0.0066580395 0.006104776 0.03239267
0001b0 99 41 54 bc 42 82 34 bc 97 4e 82 bc ff ca 43 3c
       -0.012955093 -0.011017384 -0.015906615 0.0119502535
0001c0 3d ed 2b 3c 53 1a c4 3b a2 3e e8 3c f1 75 88 bb
       0.010493574 0.0059845834 0.028350178 -0.0041644503
0001d0 bd 8c dd bb 66 2d 5e bc d5 9b c7 3a fb b4 24 3c
       -0.006761162 -0.0135606285 0.0015228937 0.010052915
0001e0 1f a2 76 bb 58 40 56 3c 0c 35 ba 3c f6 f1 dd bb
       -0.0037633253 0.013076864 0.022730373 -0.0067732288
0001f0 87 68 86 3a 86 a9 3d bd 71 75 2a bd 89 d4 db 3c
       0.001025454 -0.04630425 -0.041615907 0.026834743
000200 ed 5a 55 3b b9 a7 33 bc 39 18 15 3c de c1 fe bc
       0.0032555417 -0.010965281 0.009100013 -0.031098302
000210 63 9d 78 3c bb 46 68 bc 7b 00 7d bb 5e af af 3c
       0.015174243 -0.01417702 -0.0038605023 0.021445926
000220 2d 36 d8 3c db 2b fa bc 2a 8d 74 bc bb 5a 53 3c
       0.02639302 -0.03053849 -0.014926234 0.01290005
000230 ca 3b 71 3c 0f 1f 67 3d c8 28 f9 bc 7b ef 34 3c
       0.0147237275 0.056426104 -0.030414954 0.011043425
000240 b7 06 0d 3c d6 73 70 3c 70 01 26 3d 98 82 cb 3b
       0.008607558 0.014676055 0.040528715 0.0062106363
000250 50 71 03 bd 6d de e9 ba 2c 4b 58 bc 04 8b d1 3c
       -0.032090485 -0.0017842777 -0.013201516 0.025578983
000260 57 b6 51 bc a6 68 31 bd 8c 9e d1 bc d0 3c 05 bd
       -0.012799821 -0.04331269 -0.025588296 -0.0325287
000270 73 22 10 bd e5 c5 04 3b 9c 05 1d bc 04 e3 0a 3d
       -0.035189103 0.0020259556 -0.009583857 0.033907905
000280 98 52 77 bd bc ad 03 bd ea 1d fc 3b 54 b0 9b bc
       -0.060381502 -0.032148108 0.0076939957 -0.019004978
000290 88 fe b2 bb 94 e7 aa 3b d6 56 07 bd 90 dc 34 bd
       -0.0054624714 0.0052155945 -0.033041798 -0.044155657
0002a0 d8 cc 15 3c 70 fb eb 3c c4 3f 77 bc 1b 9e 79 bb
       0.009143077 0.028806418 -0.0150908865 -0.0038088623
0002b0 e7 fb 14 3c 94 f6 d5 3c 5e 50 30 3c 55 35 1a bd
       0.009093261 0.026118554 0.0107613485 -0.037648518
0002c0 fe 9e f0 bc 41 32 91 3c 1d 98 30 3c 34 67 f3 bb
       -0.029372688 0.017724158 0.010778454 -0.0074280743
0002d0 65 30 89 bc c6 5f 46 3c 2d d2 f3 bb e0 1a 8e bc
       -0.01674671 0.012107795 -0.0074408264 -0.0173468
0002e0 2c 36 cc 3c b3 c9 86 39 95 99 5c bb fd 95 37 39
       0.024928175 0.0002570875 -0.0033660878 0.00017508115
0002f0 76 8b a9 bc 97 c5 90 bb d2 a5 2a bc b1 12 9f 3c
       -0.020696383 -0.004418086 -0.010415511 0.019418092
000300 b6 3c a4 3b 81 1d 0e bc e4 83 35 bc 28 5c 37 3c
       0.00501212 -0.0086740265 -0.011078808 0.011191405
000310 e3 92 08 bb 67 a4 21 ba 35 2c 2a 3c 3a f0 7f bc
       -0.0020839504 -0.00061661605 0.010386516 -0.015621239
000320 90 0b 00 bd 6e 6a c2 bc 43 25 0d bd ed 88 9b 3c
       -0.031261027 -0.02373239 -0.034459364 0.01898619
000330 b0 0b 17 bc 5f 65 10 3d aa 52 d8 3b 35 56 04 3c
       -0.009219095 0.035252925 0.006601651 0.008077194
000340 58 e2 e0 3c d2 14 da bc bf 23 1b 3d 20 be 9e 3c
       0.02745168 -0.026621256 0.037875887 0.019377768
000350 e6 dd bc 3c c7 22 a0 3c f3 54 9a 3c ca 57 e5 3c
       0.023055028 0.019547833 0.018839335 0.027995963
000360 14 29 ab 3c 98 1c 86 ba 14 8e 7f bb 96 df 1e bc
       0.020893611 -0.001023191 -0.0038994597 -0.009696862
000370 79 8e 33 3d ba b7 f8 ba 59 d7 bb bc 51 94 c7 bc
       0.043837044 -0.0018975653 -0.022929834 -0.024362715
000380 57 85 83 bb 7b b2 c3 bc 09 1e 95 bc 0c e7 16 3c
       -0.004013698 -0.023888817 -0.018202798 0.009210359
000390 6e 7f 3e bb 86 94 10 bc 19 ab 10 3c 4a 04 03 bd
       -0.0029067653 -0.008824473 0.008829855 -0.031986512
0003a0 dd 68 53 bc 29 33 23 3d bb 58 d9 3a c5 4c 81 3c
       -0.012903419 0.039843712 0.001658223 0.015783677
0003b0 f2 ac 2d 3c 58 16 bb bb 63 ba 58 3c 26 b1 a3 bb
       0.010600315 -0.0057094507 0.013228032 -0.004995483
0003c0 4b a5 f6 bb fd 81 4e 3d 5e 34 39 3d 5a 23 10 bd
       -0.0075270287 0.050416935 0.045215957 -0.035189964
0003d0 32 e3 97 bc fb a8 91 3c 9a 8b af 3c c8 aa 1c 3c
       -0.018540952 0.017780771 0.021428872 0.009562202
0003e0 d8 47 04 bd c2 29 95 bc 01 34 2d bc 7d fe 60 3c
       -0.032295078 -0.018208388 -0.010571481 0.01373255
0003f0 30 45 2a bd f3 ee ba 3b c0 29 90 bc 3f 2b df 3c
       -0.04156989 0.0057047545 -0.017598033 0.027242301

bias f4 [10]
000000 47 6b 90 3b 8a 60 07 bc c1 67 ed 3a f1 5c 7e 3c
       0.0044073197 -0.008262763 0.0018112586 0.015525089
000010 a5 bc 71 3c 0d 95 b8 bc 40 07 c4 3a e8 04 70 bb
       0.014754449 -0.02253201 0.0014955774 -0.0036624018
000020 5f c0 e6 bb c6 62 f4 bb
       -0.0070419754 -0.007458064
