models/fc_0_541.pt (torch, 307711 bytes, 12 tensors)

weight f4 [70, 784]
0	0x3cda4a97	0.026646895
1	0x3b9bd52e	0.0047556376
2	0x3c15c0b7	0.009140185
3	0x3b884a5c	0.004159255
4	0xbd10df37	-0.035369124
5	0xbb76365c	-0.0037569022
6	0x3c93b2fa	0.018029679
7	0x3d0e2f6a	0.034713186
8	0xbc5912ea	-0.013249138
9	0xbc89722e	-0.016778078
10	0x3cc4e707	0.024035944
11	0x3bb0a75c	0.0053910445
12	0xbb402481	-0.0029318633
13	0x3d116be3	0.03550328
14	0x3ce384cc	0.027773283
15	0xbcffb6aa	-0.03121503
16	0xbcac33f5	-0.021020869
17	0xbcb2dd4e	-0.021834042
18	0x3d02a2ff	0.031893726
19	0xbc81ff33	-0.015868759
20	0xbc92d6ca	-0.017924685
21	0xbce4a7ee	-0.027912106
22	0xbd00ebe8	-0.031474978
23	0x3bd7ec77	0.006589468
24	0x3a5b8f6e	0.00083755597
25	0xbd097c5b	-0.03356586
26	0x3c89bfca	0.016815085
27	0xbd096aa5	-0.03354897
28	0x3cfb0cd5	0.030645767
29	0x3c094a2a	0.0083794985
30	0xbc493cae	-0.012282534
31	0x3c127c3c	0.008940753
32	0xbd01972f	-0.03163832
33	0xbce133a1	-0.027490439
34	0xbc82dabc	-0.015973441
35	0x3b74cda5	0.003735402
36	0x3d04ed37	0.03245279
37	0x3b7fc325	0.0039026227
38	0xbc880807	-0.01660539
39	0x3b5453ba	0.0032398538
40	0xbd07cabc	-0.033152327
41	0xbd769aec	-0.06020634
42	0xbcc1c1f6	-0.023652058
43	0xbce263d3	-0.02763549
44	0xbb84acc5	-0.004048916
45	0xbb064976	-0.0020490563
46	0xbcf9b635	-0.03048239
47	0xbd2a0959	-0.04151282
48	0x3b856f54	0.0040721092
49	0xbd3bc894	-0.045845583
50	0xbc8c3a18	-0.017117545
51	0xbcb32607	-0.021868719
52	0xbcedd6fe	-0.02903318
53	0xbc9caf6c	-0.019126616
54	0xbc9bf2c0	-0.01903665
55	0x3cf2295e	0.029560741
56	0x3ca6e4aa	0.020372707
57	0x3c22704e	0.009914471
58	0xbb8ae153	-0.0042382865
59	0x3c59b59c	0.013287928
60	0xbd031ab2	-0.03200788
61	0x3d09fc53	0.0336879
62	0xbc40355c	-0.011731472
63	0xbb9d97d3	-0.0048093586
64	0x3b3a7c57	0.002845546
65	0xbd3b30b2	-0.045700736
66	0xbd31a778	-0.0433726
67	0xbd9a242b	-0.0752643
68	0xbdc5ee58	-0.09664601
69	0xbd98761d	-0.07444403
70	0xbdef8811	-0.116958745
71	0xbda85931	-0.08220137
72	0xbd590f23	-0.05299295
73	0xbd737f57	-0.059447613
74	0xbd33c070	-0.043884695
75	0xbced5c50	-0.028974682
76	0xbd129e8c	-0.035795733
77	0x3c2202dd	0.009888378
78	0xbd105519	-0.035237405
79	0x3c41cc23	0.011828455
80	0xbc7754d7	-0.015095911
81	0xbb380edc	-0.0028085029
82	0xbca199ac	-0.019726597
83	0xbd091abd	-0.033472765
84	0x3c8c8100	0.017151356
85	0x3d0a0be7	0.033702757
86	0x3a91e3dc	0.001113053
87	0x3ca09580	0.019602537
88	0xbcfceebe	-0.03087556
89	0x3c7a19af	0.0152649125
90	0xbd433d45	-0.047665853
91	0xbcad153b	-0.021128288
92	0xbcbd8996	-0.023136895
93	0xbd4d3c95	-0.050106604
94	0xbd34f519	-0.044179056
95	0xbdd3326d	-0.10312352
96	0xbd9932c9	-0.074803896
97	0xbddae689	-0.10688502
98	0xbd6ec1f1	-0.058290426
99	0xbdd2186f	-0.102585666
100	0xbdae24a1	-0.0850308
101	0xbd495e42	-0.049162157
102	0xbd38a0dd	-0.045075286
103	0xbdf3017d	-0.11865518
104	0xbd8567a7	-0.06513911
105	0x3d5baf6b	0.05363409
106	0x3dc6da3b	0.09709593
107	0xbcc6b4f6	-0.02425621
108	0xbbefa5d3	-0.007313469
109	0xbd0d4cef	-0.034497198
110	0x3d0a8118	0.03381452
111	0xbcaf9aa5	-0.021436045
112	0x3a6d9e4a	0.00090644194
113	0xbd059bb7	-0.032619204
114	0x3c9b0eba	0.01892792
115	0x3c901637	0.017588718
116	0x3d60719d	0.05479585
117	0x3cad3291	0.021142276
118	0xbcad302d	-0.021141136
119	0x3c8a5e92	0.016890798
120	0x3d62a6a8	0.055334717
121	0x3cdc8b22	0.026921812
122	0xbcb37961	-0.021908464
123	0x3d2d9cb6	0.04238578
124	0xbd27efa8	-0.04100004
125	0xbd0c5eb9	-0.034270022
126	0x3c546414	0.012963314
127	0x3a86d942	0.0010288137
128	0xbd9d379c	-0.07676622
129	0xbdcb5acd	-0.09929428
130	0xbe013406	-0.12617502
131	0xbd7a102c	-0.06105058
132	0x3d84eea1	0.06490827
133	0x3df3abdc	0.11898014
134	0x3dd0251d	0.10163329
135	0x3dc43643	0.09580662
136	0x3d46d08f	0.04853874
137	0xbcea55aa	-0.028605301
138	0x3ccffe9a	0.025389958
139	0x3b5235b7	0.0032075474
140	0x3b0d9c00	0.0021607876
141	0x3c9da05e	0.019241508
142	0xbc6f1c5c	-0.014594164
143	0xbd0ac856	-0.03388246
144	0x3d77ce18	0.06049928
145	0x3cadb116	0.021202605
146	0x3d8a262e	0.067455634
147	0x3b3d60af	0.002889674
148	0x3b198c8e	0.0023429724
149	0x3cb66806	0.0222664
150	0xbda1e743	-0.07905438
151	0xbd2f67ad	-0.042823482
152	0xbc15bda2	-0.00913945
153	0xbc1dda1a	-0.009634519
154	0xbc6f9912	-0.014623897
155	0xbd942107	-0.07232862
156	0xbd32f48f	-0.04369026
157	0xbd6e6908	-0.058205634
158	0xbdadf50e	-0.08494006
159	0xbdccb63b	-0.09995695
160	0xbcd93e04	-0.02651883
161	0x3b62f02d	0.003462802
162	0x3db2d2cd	0.08731613
163	0x3dbcbe44	0.09215978
164	0x3dc4c8e0	0.09608626
165	0x3d830df5	0.063991465
166	0x3b880b7f	0.004151761
167	0xbcddf9b3	-0.027096605
168	0xbcf4beee	-0.029876199
169	0xbca453a0	-0.020059407
170	0xbad1fc0a	-0.0016020548
171	0x3bb9c0bc	0.0056687277
172	0x3bdf2a39	0.0068104533
173	0x3bc187c9	0.0059060794
174	0xbcfb1ac2	-0.030652408
175	0xbc6b2083	-0.014351013
176	0x3ca9e392	0.020738397
177	0xbab4e930	-0.0013802405
178	0xbb2f56a9	-0.0026754534
179	0x3bf5a36a	0.007496287
180	0xbd682bba	-0.056682326
181	0xbd0d3147	-0.034470823
182	0xbd40f26c	-0.04710619
183	0xbc613846	-0.013746327
184	0x3b18b4a9	0.0023301041
185	0x3bae48e9	0.00531875
186	0xbbb86029	-0.0056266976
187	0x3ceadb92	0.028669152
188	0x3c8a62de	0.016892847
189	0x3d27d293	0.040972304
190	0xbc703000	-0.014659882
191	0x3cf5da16	0.030011218
192	0xbd41be9b	-0.047300916
193	0xbdd18a29	-0.1023143
194	0xbd7ec38c	-0.062198207
195	0xbbe31834	-0.0069303755
196	0x3b3ae1ca	0.0028515928
197	0xbc35001c	-0.011047389
198	0x3bf9eb92	0.007626959
199	0x3d672c78	0.056438893
200	0x3d2dd93f	0.04244351
201	0x3d26d41a	0.04072962
202	0xbd515d69	-0.051114473
203	0xbd0cddd2	-0.03439123
204	0xbd0fe9c9	-0.035135064
205	0xbd50d116	-0.05098065
206	0xbd4d9a1c	-0.0501958
207	0xbd21502e	-0.039383106
208	0xbccc53e7	-0.024942352
209	0x3a04a3d1	0.0005059811
210	0xbc9d328d	-0.019189144
211	0xbcee4315	-0.029084722
212	0x3cba434f	0.022737173
213	0x3bb79af0	0.005603187
214	0x3cec6ab0	0.028859466
215	0xbb92e7e3	-0.0044832095
216	0x3d46bc6b	0.048519533
217	0xbbd10da8	-0.006379802
218	0x3c690be3	0.014224025
219	0x3cc2f77a	0.023799647
220	0xbce4813d	-0.027893657
221	0xbdae6068	-0.08514482
222	0xbda8949d	-0.08231471
223	0xbd29e99f	-0.041482564
224	0xbd0a3a8b	-0.033747237
225	0xbcbd404c	-0.023101948
226	0xbc188120	-0.00930813
227	0x3c5a5db0	0.013328001
228	0x3d7ed6e6	0.062216662
229	0xbcccead7	-0.025014324
230	0xbd77f5f8	-0.06053731
231	0xbd51771d	-0.051138986
232	0xbd4b3356	-0.049609505
233	0xbb874f2b	-0.0041293106
234	0xbb06f178	-0.0020590704
235	0xbc7354c2	-0.014851751
236	0xbcd38f34	-0.02582512
237	0x3c226b66	0.009913301
238	0x3c1c571b	0.009542252
239	0xbd869e81	-0.06573201
240	0xbd306288	-0.043062717
241	0x3b1be866	0.0023789643
242	0xbc179a78	-0.009253137
243	0xbb687f39	-0.0035476221
244	0x3d550a08	0.05201152
245	0x3c99c6f5	0.018771628
246	0xbae6c348	-0.0017605806
247	0xbd4f6df4	-0.05064197
248	0xbdee0aa5	-0.11623124
249	0xbd90e41f	-0.07074761
250	0xbd46ccbf	-0.048535105
251	0x3cf5ea3c	0.030018918
252	0xbcd96e93	-0.026541984
253	0xbd8f1872	-0.069870844
254	0xbd76636f	-0.06015342
255	0xbd9c7b22	-0.07640673

bias f4 [70]
0	0xbc542b55	-0.012949784
1	0x3d861fc5	0.06549028
2	0xbcbd1cc1	-0.023085
3	0x3d2c7ad5	0.04210933
4	0x3d16fa88	0.03686002
5	0x3d4473e9	0.047962103
6	0x3d5ea91f	0.054360505
7	0xbc8899b9	-0.016674863
8	0xbd418242	-0.047243364
9	0xbbc1e012	-0.005916604
10	0xbc11cb5e	-0.008898584
11	0x3cdcaa64	0.026936717
12	0x3d6e3ebd	0.0581653
13	0xbcbba07f	-0.022903679
14	0xbc60fbf8	-0.013731949
15	0x3bde0e7b	0.0067766286
16	0x3aa60bbd	0.0012668293
17	0x3d8185bc	0.06324336
18	0x3d39d465	0.04536857
19	0x3c287e6d	0.0102840485
20	0x3d4aedc8	0.049543172
21	0x3b0d137e	0.002152651
22	0x3cae14fe	0.021250244
23	0x3cda1285	0.026620159
24	0x3c7bfb75	0.015379776
25	0xbd04239b	-0.03226052
26	0x3d2a3e36	0.041563235
27	0x3d06dfea	0.032928385
28	0xbbbb0975	-0.0057079145
29	0x3ceac5de	0.028658804
30	0x3d8ed970	0.06975067
31	0x3bc56f84	0.0060252566
32	0x399c7684	0.0002984294
33	0xbbb6ac2e	-0.0055747246
34	0x3d7d8f40	0.061904192
35	0x3d60dd68	0.05489865
36	0x3d32cda4	0.043653145
37	0x3c4bd059	0.012439811
38	0x3cb53483	0.022119766
39	0xb891e082	-6.9559566e-05
40	0xbd0d42b9	-0.03448746
41	0xbb2f21e7	-0.0026723088
42	0x3cca30ad	0.024681414
43	0x3d85eef2	0.06539716
44	0x3cb04e24	0.021521635
45	0x3d1975b3	0.037465762
46	0x3c73ec59	0.014887893
47	0x3d4e4d11	0.050366465
48	0x3b877e23	0.0041349097
49	0xbc302265	-0.010750388
50	0x3bc62a10	0.0060474947
51	0xbcd352e2	-0.025796358
52	0x3b331a3c	0.002732887
53	0x3c595f24	0.013267312
54	0x3ca6bb56	0.020353
55	0x3d69638d	0.056979705
56	0x3d52e42b	0.05148713
57	0x3bdb13f3	0.0066857277
58	0x3cbdf935	0.02319012
59	0x3c7685f1	0.015046583
60	0x3bbd950c	0.00578559
61	0x3d640456	0.055668198
62	0x3d9a9a53	0.07548966
63	0x3cbbec07	0.022939695
64	0x3d00465d	0.031317104
65	0x3d30fe3b	0.043211203
66	0xbce72df5	-0.028220156
67	0x3dc1bd89	0.09459979
68	0x3c046dfe	0.008082865
69	0x3cb96d16	0.022635024

weight f4 [70, 70]
0	0x3e61aa3a	0.22037593
1	0x3ca9abe9	0.020711856
2	0x3dd182a5	0.102299966
3	0x3e1fa058	0.1558851
4	0xbbc02018	-0.005863201
5	0x3e0946db	0.13405935
6	0xb9636437	-0.0002168574
7	0xbc90e454	-0.017687
8	0x3ce14a27	0.027501179
9	0xbd5084e4	-0.050907984
10	0x3c72a5d6	0.014810046
11	0x3d64be43	0.05584551
12	0xbd9c154d	-0.0762125
13	0x3dc99f4c	0.098448366
14	0xbd85534f	-0.065100305
15	0xbdad0924	-0.08449009
16	0x3d7a386e	0.06108897
17	0x3d6eb848	0.058281213
18	0xbb96c0e9	-0.0046006334
19	0xbe37ac40	-0.17936802
20	0x3dd38997	0.103289776
21	0x3d0c2cf9	0.034222577
22	0x3d31f29c	0.04344426
23	0xbb81fdae	-0.0039670086
24	0xbda0a2f9	-0.078435846
25	0xbe01d633	-0.12679367
26	0x3d0097fd	0.031394947
27	0xbc8f67e5	-0.017505595
28	0xbda4d261	-0.08047939
29	0x3d8486bc	0.06471011
30	0x3e0879e6	0.1332775
31	0x3d0604bb	0.032719355
32	0x3e315741	0.17318441
33	0x3e58549d	0.21126027
34	0xbe336623	-0.17519431
35	0xbdd92e57	-0.10604542
36	0x3d6a6054	0.057220772
37	0xbd92cc5d	-0.071678855
38	0x3d7babf3	0.06144328
39	0xbdfa7088	-0.12228495
40	0xbe40cfa7	-0.18829213
41	0xbd9e00e4	-0.077150136
42	0xbdcc1ccd	-0.09966431
43	0x3db9b3ea	0.09067519
44	0xbdb4780a	-0.08811958
45	0xbdecdd50	-0.115656495
46	0x3b869bd2	0.0041079307
47	0x3dc19b5d	0.09453461
48	0x3cd56fdb	0.026054313
49	0x3d8b95f2	0.06815709
50	0x3d1ebef0	0.03875631
51	0x3d46f980	0.048577785
52	0xbe0b48ff	-0.13602065
53	0x3db2e4e8	0.08735067
54	0xbe020fb9	-0.1270131
55	0xbd8a1545	-0.06742338
56	0x3ddf66e5	0.109082974
57	0x3d815c92	0.063164845
58	0x3d141544	0.036153093
59	0x3e20c6c8	0.15700829
60	0x3ddce9e6	0.107868
61	0xbe3eddaa	-0.18639246
62	0xbd8b8296	-0.06812017
63	0x3d277a43	0.040888082
64	0x3d3c0230	0.045900524
65	0xbdea77bb	-0.11448618
66	0x3c8f862e	0.017520037
67	0xbc8312b6	-0.016000133
68	0x3e24ce97	0.16094433
69	0x3e03ca68	0.1287018
70	0xbe50c21b	-0.20386545
71	0xbc9c22c6	-0.01905955
72	0xbdb7ce43	-0.08974888
73	0x3dc3a4b6	0.095529005
74	0xbd4ee1ea	-0.050508417
75	0x3da81418	0.082069576
76	0x3d8b122b	0.06790575
77	0x3e673f59	0.22582759
78	0x3df73d09	0.120721884
79	0x3e00d8a8	0.12582648
80	0x3d9e04b7	0.07715743
81	0x3da9c689	0.08289821
82	0xbcfbaf2c	-0.030723177
83	0xbd60507c	-0.054764256
84	0x3d9baaed	0.07600961
85	0xbda0aaa4	-0.07845047
86	0x3d2107ea	0.039314188
87	0x3da794ce	0.08182679
88	0x3df11a24	0.11772564
89	0x3d41febb	0.04736207
90	0xbd32bc66	-0.043636702
91	0x3cbaef3f	0.02281916
92	0x3c90df75	0.017684678
93	0xbdeb1f12	-0.114805356
94	0xbd3b4bfb	-0.045726757
95	0xbda73f18	-0.08166331
96	0x3d92f18a	0.07174976
97	0x3ca9c2fd	0.02072286
98	0x3e033039	0.12811364
99	0xbdbba4a2	-0.091622606
100	0x3d2b8999	0.04187927
101	0x3d313b47	0.043269422
102	0xbe37bcc4	-0.17943102
103	0x3cbea961	0.023274126
104	0x3ca8526f	0.02054712
105	0x3e12c8de	0.14334437
106	0x3dec8807	0.11549383
107	0xbe3ec890	-0.18631196
108	0x3dbf4756	0.09339778
109	0xbc611d00	-0.013739824
110	0x3db3fb56	0.08788173
111	0xbddd79fd	-0.10814283
112	0xbcfd4a69	-0.03091927
113	0xbd3db787	-0.046317603
114	0xbd683b04	-0.056696907
115	0x3cb7cfca	0.022437949
116	0x3c4fdae5	0.012686466
117	0xbda27db5	-0.07934133
118	0xbddc3012	-0.10751356
119	0xbdafa1cb	-0.085757814
120	0x3e001816	0.12509188
121	0x3df19db3	0.11797657
122	0x3dc768f7	0.09736817
123	0xbd680205	-0.05664255
124	0x3d86b14e	0.06576787
125	0xbdcf4f85	-0.10122589
126	0xbdc324f8	-0.095285356
127	0x3c03c250	0.008041933
128	0xbc33071c	-0.010926988
129	0x3d73ee15	0.059553225
130	0x3d47ae18	0.048750013
131	0xbcd252c6	-0.025674235
132	0x3d048eb9	0.032362673
133	0x3d7506f7	0.059821095
134	0xbdcb6d1c	-0.0993292
135	0x3df52a23	0.119709276
136	0xbd4aa891	-0.049477164
137	0xbd25a56b	-0.040440958
138	0x3e0b96aa	0.13631693
139	0xbd8ba628	-0.06818801
140	0xbd392cc2	-0.0452087
141	0xbd6a9cc9	-0.05727843
142	0xbd55f4e6	-0.052235506
143	0xbd076e60	-0.033064246
144	0xbe129642	-0.14315131
145	0x3db71353	0.08939233
146	0xbce6ef5a	-0.028190304
147	0x3d4f90eb	0.050675314
148	0xbd82c9db	-0.06386157
149	0xbd25412f	-0.040345367
150	0x3d2bd9e3	0.04195584
151	0x3d6ae17a	0.057343937
152	0xbcaa1de8	-0.020766214
153	0x3d20801e	0.039184682
154	0x3da74a31	0.08168448
155	0xbdec2659	-0.11530752
156	0x3dd090a2	0.101838365
157	0x3df38c73	0.11892023
158	0x3dac4216	0.084110424
159	0x3cc1bfb1	0.023650976
160	0xbdb26b55	-0.08711878
161	0xbcdb4b67	-0.026769353
162	0x3ddacb4c	0.10683307
163	0xbda53f5a	-0.08068724
164	0x3dbf7324	0.09348133
165	0xbe1c67b7	-0.15273939
166	0x3dd3864a	0.10328348
167	0xbd5bfce3	-0.05370797
168	0x3dd77f31	0.10522307
169	0xbcff2302	-0.031144623
170	0x3dfd0b72	0.12355699
171	0x3b91f8c5	0.0044547045
172	0xbe53c007	-0.20678721
173	0xbd7b4aa6	-0.061350487
174	0x3d71301a	0.058883764
175	0x3d6101ff	0.054933544
176	0xbd858b5d	-0.06520722
177	0xbdb69942	-0.0891595
178	0x3ccc629a	0.02494936
179	0x3d42361c	0.047414884
180	0x3d107e4d	0.0352767
181	0xbb3200cf	-0.0027161126
182	0x3cc4b56c	0.02401229
183	0x3dacd07b	0.08438202
184	0x3d80f8a1	0.06297422
185	0xba83d989	-0.0010059337
186	0x3dfa7a36	0.12230341
187	0xbcd4131d	-0.02588802
188	0xbdd7f5c2	-0.105449215
189	0xbd181f80	-0.037139416
190	0x3d927f6f	0.07153212
191	0xbc83604d	-0.01603713
192	0xb9e52604	-0.00043706608
193	0xbcf32a71	-0.029683324
194	0x3d81a2e7	0.06329899
195	0x3cb91cc5	0.022596726
196	0xbd76ebe6	-0.060283564
197	0xbc32ebe7	-0.010920501
198	0x3c12c46b	0.0089579625
199	0xbd9df246	-0.077122256
200	0xbd830ef2	-0.06399335
201	0xbc366f24	-0.011134896
202	0x3de7ac0e	0.11312114
203	0xbdb24793	-0.08705058
204	0x3d90fe34	0.070797354
205	0x3d9d3940	0.07676935
206	0xbda820fe	-0.08209418
207	0x3da2ebb0	0.0795511
208	0x3b7e0850	0.003876228
209	0xbda19243	-0.07889225
210	0x3e1fa6d0	0.15590978
211	0x3e12c7e5	0.14334066
212	0xbda22323	-0.07916858
213	0x3b686d33	0.0035465478
214	0x3b2e4ffd	0.002659797
215	0xbd2a5f01	-0.04159451
216	0x3c0d631c	0.008629587
217	0x3d884d69	0.0665539
218	0x3d393a33	0.04522152
219	0x3d85c7c5	0.06532244
220	0x3cdf6de8	0.027274087
221	0x3de1b783	0.1102133
222	0xbd0a2e2d	-0.033735443
223	0xbe03c43e	-0.12867829
224	0x3d830c45	0.063988246
225	0x3d0129f0	0.031534135
226	0xbdf507d0	-0.11964381
227	0xbce21b1b	-0.027600816
228	0x3d63cc22	0.055614598
229	0x3d229a80	0.039698124
230	0x3e077939	0.13229837
231	0xbd1ba27b	-0.03799675
232	0xbd311047	-0.043228414
233	0x3d3e10c2	0.0464027
234	0xbd4fe9e0	-0.05076015
235	0xbdb32b16	-0.08748452
236	0x3d668069	0.056274805
237	0x3d923a07	0.07139974
238	0xbd667372	-0.05626244
239	0x3d3d761b	0.046255212
240	0x3cbc4738	0.022983178
241	0xbd91f76e	-0.071272716
242	0x3dd59073	0.10427942
243	0x3d493857	0.049125995
244	0x3dbaa8eb	0.0911425
245	0x3d38ee1d	0.045148958
246	0x3d7b4d30	0.06135291
247	0x3dd0a02f	0.101868026
248	0x3de23e8d	0.11047087
249	0x3d061b46	0.032740854
250	0x3cffaf50	0.031211525
251	0x3d6f90b4	0.05848761
252	0x3e2089bb	0.1567754
253	0x3d38265d	0.04495846
254	0xbdaff04f	-0.08590757
255	0x3db4a71b	0.08820935

bias f4 [70]
0	0x3d83b1c2	0.06430389
1	0x3de28f8f	0.11062538
2	0x3dda3cc5	0.10656122
3	0xbd27b6da	-0.040945865
4	0x3d968e95	0.07351414
5	0x3dad0237	0.08447688
6	0xbd979a47	-0.07402473
7	0x3e2b1a9f	0.16709374
8	0x3e0ba3b8	0.13636672
9	0xbccd7bd3	-0.025083458
10	0x3dfdc56f	0.12391173
11	0x3dc45c81	0.09587956
12	0xbd09e0d3	-0.033661675
13	0xbd870196	-0.06592099
14	0xbc1cfc94	-0.009581704
15	0xbd849632	-0.0647396
16	0x3e1a71b0	0.15082431
17	0xbdba5c92	-0.09099688
18	0x3d9cadbd	0.076503254
19	0x3db6f86f	0.08934104
20	0xbdfaa17e	-0.122378334
21	0xbdd83d55	-0.10558573
22	0x3cd7e505	0.026354322
23	0x3db20a14	0.086933285
24	0x3c5444d1	0.01295586
25	0x3d640cc2	0.05567623
26	0xbdbde18e	-0.09271537
27	0x3d88decf	0.06683122
28	0xbd86aa5a	-0.06575461
29	0x3df82f26	0.12118368
30	0x3d9d600b	0.07684334
31	0x3da0c9eb	0.07851013
32	0x3e2d51fd	0.16925807
33	0x3e248230	0.16065288
34	0x3b197d68	0.0023420695
35	0xbcfd6c7c	-0.030935518
36	0x3e07f0c0	0.13275433
37	0x3d86f994	0.06590572
38	0xba47b44b	-0.00076181133
39	0x3c7cccfd	0.015429732
40	0xbc080483	-0.008301857
41	0xbda049ca	-0.07826574
42	0xbd9637e9	-0.07334883
43	0xbcee7712	-0.029109512
44	0x3d854363	0.065069936
45	0x3d6696e4	0.056296244
46	0x3b829b5d	0.003985806
47	0x3d95657c	0.07294747
48	0x3cc6db92	0.024274621
49	0x3dae00e2	0.08496262
50	0xbc64c60f	-0.0139632365
51	0x3d6f2021	0.05838025
52	0xbc46cc3b	-0.012133653
53	0x3d6925f1	0.05692095
54	0xbca9936e	-0.020700183
55	0xbdff7b75	-0.124747194
56	0xbdbaddd4	-0.091243416
57	0x3d85cbe8	0.06533033
58	0x3da021cb	0.078189455
59	0x3d92c85d	0.071671225
60	0x3d02ebc3	0.03196312
61	0x3c6fdc1b	0.01463988
62	0x3dcc8a17	0.09987276
63	0xbd3c66d8	-0.045996517
64	0xbd49e0a8	-0.049286515
65	0x3dfef6fe	0.12449454
66	0xbd57ac97	-0.05265483
67	0xbd6c8f88	-0.05775407
68	0x3e0a869e	0.13527915
69	0x3d2ab460	0.041675925

weight f4 [70, 70]
0	0xbcf0bd4e	-0.029387143
1	0xbde92930	-0.11384809
2	0x3dc4407d	0.09582613
3	0x3b7e33a8	0.0038788114
4	0x3dd53c33	0.10411873
5	0x3c7446a9	0.014909425
6	0xbcd4bbd1	-0.025968464
7	0xbdbcd42c	-0.09220156
8	0xbd093915	-0.033501703
9	0xbdb04fbf	-0.0860896
10	0x3da1eb8b	0.079062544
11	0xbdcbabcd	-0.09944878
12	0xbdec42d5	-0.11536185
13	0xbdc7fa73	-0.09764566
14	0xbd829088	-0.063752234
15	0xbd41954d	-0.047261525
16	0xbcc22fe4	-0.023704477
17	0x3d1dddd1	0.03854162
18	0x3d164a6d	0.03669207
19	0xbd13e0e9	-0.036103163
20	0xbdd8ed70	-0.105921626
21	0xbd553f6d	-0.05206244
22	0xbca38b7c	-0.019963972
23	0xbdc82dd1	-0.09774364
24	0xbdb3dea5	-0.087827004
25	0x3c4da594	0.012551684
26	0x3dca4db0	0.09878099
27	0x3dc2e1fc	0.09515759
28	0x3ad95c96	0.0016583379
29	0xbda8ccd9	-0.082421966
30	0x3c2664d0	0.0101558715
31	0x3d8d99d0	0.06914103
32	0xbc190647	-0.009339876
33	0x3dd6a8c0	0.10481405
34	0x3caf9d54	0.021437325
35	0x3dd8ef0f	0.10592472
36	0xbd182c6e	-0.037151746
37	0x3de4f13b	0.111788236
38	0x3cbdac85	0.023153553
39	0xbd3c3c08	-0.045955688
40	0x3da29ea4	0.079404145
41	0xbdebc268	-0.115116894
42	0xbda95320	-0.08267808
43	0xbd923180	-0.071383476
44	0xbd9486ef	-0.07252299
45	0xbd01e49b	-0.031712156
46	0x3ddac3eb	0.106819
47	0xbdbe00b0	-0.09277475
48	0xbdc1f289	-0.09470088
49	0xbcad34a7	-0.02114327
50	0x3d460fa9	0.04835478
51	0x3de3ef82	0.11129667
52	0xbcec52c5	-0.028848061
53	0xbd7331d5	-0.059373695
54	0x3d8b3fa4	0.06799248
55	0x3d87667d	0.06611345
56	0x3d72fc4d	0.059322644
57	0xbd954c2f	-0.072899215
58	0xbd2be285	-0.041964073
59	0x3cd759cd	0.026287938
60	0xbd8bc3ff	-0.06824493
61	0xbd5fbb25	-0.054621834
62	0xbd8f7892	-0.07005419
63	0x3dc2c01c	0.09509298
64	0x3c956c75	0.018240193
65	0xbd89ac29	-0.0672229
66	0x3db56bb5	0.08858434
67	0x3d3fca74	0.046823934
68	0x3c36ba05	0.011152749
69	0xbde5bf3c	-0.11218116
70	0x3deb97c6	0.11503558
71	0xbde87747	-0.11350875
72	0xbce439f3	-0.027859664
73	0x3d145305	0.036211986
74	0x3d683418	0.056690305
75	0x3e1cdead	0.15319319
76	0x3d68609f	0.05673277
77	0x3d5d59b6	0.054040633
78	0xbda03fbc	-0.07824656
79	0xbd64d33b	-0.055865508
80	0x3dad97c4	0.084762126
81	0xbe17162e	-0.14754555
82	0x3dc58b0b	0.09645661
83	0xbc9d30cd	-0.01918831
84	0x3d1f34ce	0.038868718
85	0xbdac93b5	-0.084266104
86	0x3e0500b9	0.12988557
87	0xbdd130dc	-0.10214397
88	0x3e029f5e	0.12756106
89	0x3d89cbc5	0.06728319
90	0xbd5a7366	-0.05333271
91	0x3db94a80	0.09047413
92	0xbe2442ee	-0.16041157
93	0xbd61c5c3	-0.05512024
94	0xbd23b241	-0.039964918
95	0x3cb97471	0.022638531
96	0x3d69d39e	0.05708658
97	0x3d105f79	0.0352473
98	0x3c64c9e8	0.013964154
99	0x3da9223a	0.08258481
100	0x3afe7014	0.0019412064
101	0x3d930a2d	0.07179675
102	0xbd563e70	-0.05230564
103	0x3e33d55e	0.17561862
104	0x3e0d7007	0.13812266
105	0x3e09f7bc	0.1347341
106	0xbc730a07	-0.014833934
107	0x3db9ac8c	0.09066114
108	0xbd8759b6	-0.06608908
109	0xbc032e8e	-0.008006705
110	0x3d177648	0.036978036
111	0xbc97e498	-0.01854162
112	0x3d889a9b	0.06670114
113	0x3dbe603b	0.09295698
114	0x3e092ad9	0.13395251
115	0x3b97d0f8	0.0046330653
116	0xbdb570f0	-0.08859432
117	0xbcd1d908	-0.025616184
118	0x3c897f59	0.016784357
119	0xbdb39fb0	-0.08770692
120	0xbda3c958	-0.07997388
121	0x3d1c9ed9	0.038237426
122	0x3ce1fc31	0.027586075
123	0xbe16baba	-0.14719668
124	0x3b7ed3ad	0.0038883493
125	0xbda15782	-0.07878019
126	0x3de22165	0.11041526
127	0x3da2e364	0.079535276
128	0x3d8b7aaa	0.06810506
129	0xbd88b21d	-0.066745974
130	0xbd3b6d8e	-0.045758776
131	0x3d6ede04	0.0583172
132	0x3dbeb535	0.09311906
133	0x3dc13fb7	0.09435981
134	0x3d65354b	0.055959027
135	0x3d7656b2	0.060141273
136	0x3cd39eba	0.025832523
137	0xbdb3a990	-0.08772576
138	0x3e28e76e	0.16494533
139	0x3e0ec6ca	0.1394302
140	0xbddf8bfb	-0.10915371
141	0x3da107fb	0.0786285
142	0xbd08c310	-0.03338915
143	0x3dc012b1	0.09378565
144	0xbcb145f9	-0.02163981
145	0x3e03418f	0.12817977
146	0x3d93f54f	0.07224523
147	0xbc34b649	-0.011029788
148	0x3d5fd810	0.054649413
149	0x3e161223	0.14655356
150	0x3dba277b	0.090895616
151	0x3d64bf1e	0.055846326
152	0x3d802db6	0.06258719
153	0xbdb138d9	-0.08653421
154	0xbdb5bf7c	-0.08874413
155	0x3b56b8ef	0.0032764038
156	0x3af71924	0.0018852097
157	0x3b4c65f9	0.003118871
158	0xbe1f3c98	-0.15550458
159	0xbd998c56	-0.0749747
160	0x3d5ae1b5	0.053437907
161	0x3dc2274a	0.0948015
162	0xbe02171a	-0.12704125
163	0xbdabe5e3	-0.08393457
164	0x3d8eca5a	0.06972189
165	0x3e10c62a	0.14138094
166	0xbe02a2b9	-0.12757386
167	0x3d92fc9c	0.07177088
168	0x3da0c607	0.07850271
169	0xbd8731b8	-0.0660128
170	0x3e0a393e	0.13498399
171	0xbd88f19d	-0.06686709
172	0x3df585ca	0.11988409
173	0xbd809246	-0.062778994
174	0xbcc105e1	-0.023562374
175	0x3d330894	0.043709353
176	0x3dab2304	0.08356288
177	0x3d8ee061	0.06976391
178	0x3da809e5	0.08205012
179	0x3d2e387c	0.042534336
180	0xbd09ccd5	-0.03364261
181	0x3e1ffe65	0.15624388
182	0xbd7cbc6f	-0.06170314
183	0x3dc2e94d	0.09517155
184	0x3dc0772a	0.09397729
185	0xbd4d3c1d	-0.050106157
186	0x3cf8c61a	0.0303679
187	0xbb9efe47	-0.0048520896
188	0xbd5af0ef	-0.05345243
189	0x3e35741b	0.17720072
190	0x3db97bb2	0.09056796
191	0xbe431b8b	-0.19053476
192	0xbda6f8e1	-0.08152939
193	0xbcc7cac4	-0.024388678
194	0xbc866607	-0.016406072
195	0x3d1fa360	0.038974166
196	0x3d54aed0	0.051924527
197	0x3da164ba	0.0788054
198	0x3d6b8ce9	0.05750743
199	0xbd7a0bf8	-0.06104657
200	0x3dd15150	0.10220587
201	0x3d6c9cfc	0.0577669
202	0x3e2da47d	0.16957279
203	0x3deb14b1	0.11478556
204	0x3dae9d86	0.08526139
205	0x3dd9bbc0	0.106315136
206	0x3e1571e2	0.14594224
207	0x3dee83aa	0.11646207
208	0x3bb7bec3	0.0056074574
209	0x3d720960	0.059090972
210	0xbba8a481	-0.0051465635
211	0x3e25c516	0.16188464
212	0xbdcc8be5	-0.0998762
213	0xbdc68d24	-0.09694889
214	0x3b12a8c1	0.0022378417
215	0xbda217fd	-0.07914732
216	0x3db8c4c3	0.09021904
217	0x3d9df6ae	0.07713066
218	0x3e13f240	0.1444788
219	0x3cf5c04d	0.029998923
220	0x3ceff74e	0.029292729
221	0x3d397f5c	0.045287475
222	0xbcdcae1c	-0.02693849
223	0x3cc6e25f	0.024277864
224	0xbdb78347	-0.08960586
225	0x3dd88d33	0.105738066
226	0xbd0db592	-0.034596987
227	0x3de3b1ed	0.11117921
228	0x3dc90324	0.09815052
229	0x3c61e657	0.013787827
230	0x3cde2b1f	0.027120171
231	0xbca48ff7	-0.020088179
232	0x3cf42ece	0.029807474
233	0x3cf8ba6f	0.030362336
234	0x3d1611ab	0.036637943
235	0x3cf85cb1	0.030317636
236	0xbe1ac719	-0.15115012
237	0xbd531c85	-0.05154087
238	0x3e22bfe2	0.1589351
239	0xbd73818a	-0.05944971
240	0xbcf5753c	-0.029963128
241	0xbd0b133d	-0.033953894
242	0x3d2a23dd	0.04153811
243	0x3d452dda	0.04813943
244	0x3d6d9a6a	0.05800859
245	0xbca24bd4	-0.019811548
246	0x3b9b0490	0.0047307685
247	0xbd2bedf8	-0.04197499
248	0x3caa2759	0.020770716
249	0x3e0aede0	0.13567305
250	0xbab5a337	-0.0013857846
251	0x3de1a08f	0.11016952
252	0x3dd8e72b	0.10590967
253	0xbd2c6c8a	-0.0420957
254	0xbddfede5	-0.10934047
255	0x3d8e175f	0.069380514

bias f4 [70]
0	0x3c94d87c	0.018169634
1	0xbcfbc4bc	-0.030733459
2	0x3d8eb133	0.06967392
3	0x3bd23ccb	0.0064159385
4	0xbdc29473	-0.09500971
5	0x3da07237	0.07834285
6	0xbd800ac9	-0.06252057
7	0xbdaff41f	-0.08591484
8	0x3ce32f11	0.027732404
9	0x3dce1d93	0.100642346
10	0x3dc11ff7	0.09429925
11	0xbd24dbf5	-0.04024883
12	0x3db090ae	0.086213455
13	0xb8a32591	-7.779443e-05
14	0x3de0a3a2	0.109687105
15	0x3e2030c5	0.15643604
16	0x3dcd1a47	0.10014778
17	0xbc1cca2a	-0.009569684
18	0xbd8ddde1	-0.06927086
19	0x3e1b6d0b	0.15178315
20	0xbd14918f	-0.036271628
21	0xbd34fc6d	-0.044186044
22	0x3d85abd9	0.06526918
23	0xbdd76d81	-0.10518933
24	0x3d6b5f57	0.05746397
25	0xbd86d4ef	-0.065835826
26	0x3dcf388e	0.10118209
27	0xbd5a1ff5	-0.053253133
28	0x3ae2c65e	0.001730155
29	0x3c972035	0.018447975
30	0x3db94799	0.09046859
31	0x3dcdf113	0.10055747
32	0x3da2e68d	0.0795413
33	0x3e0274a1	0.12739803
34	0xbdd81ff1	-0.10552967
35	0xbd911520	-0.070841074
36	0xbdf629fc	-0.12019727
37	0xbcb7feb6	-0.022460323
38	0x3da859fb	0.082202874
39	0x3d4bc7f1	0.049751226
40	0x3d41dd63	0.04733027
41	0x3bd4d25b	0.006494803
42	0xbde51cc2	-0.11187126
43	0x3de00632	0.10938682
44	0x3d2e7bbd	0.042598475
45	0x3de8d0af	0.11367928
46	0xbd0fffd3	-0.035156082
47	0x3a727561	0.0009249058
48	0x3dad5f50	0.08465445
49	0xbdd22d94	-0.102625996
50	0x3e3877bb	0.18014424
51	0x3d6ee82c	0.058326885
52	0x3c7dd3a6	0.015492355
53	0x3debe53d	0.11518333
54	0xbd922443	-0.071358226
55	0x3d8ffe7a	0.070309594
56	0xbde5ffbf	-0.1123042
57	0x3dbdb76b	0.092635
58	0xbd80d922	-0.06291415
59	0xbd19366e	-0.037405424
60	0xbdaf1256	-0.08548419
61	0xbda98a44	-0.08278325
62	0xbc08c6f5	-0.008348216
63	0x3d26ad52	0.040692635
64	0x3da395bb	0.07987543
65	0x3c806b23	0.015676087
66	0xbdb01220	-0.08597207
67	0x3d7f3552	0.06230671
68	0xbccfa6e0	-0.025348127
69	0x3d805b35	0.06267396

weight f4 [70, 70]
0	0x3db5e480	0.088814735
1	0xbd039cac	-0.032131836
2	0xbdb4c611	-0.08826841
3	0x3d1d8631	0.038458053
4	0x3c186061	0.009300322
5	0xbbb95fb7	-0.005657162
6	0xbd32277d	-0.04349469
7	0xbcc75e98	-0.024337098
8	0xbc857cc8	-0.016294852
9	0x3d7d1a04	0.06179239
10	0x3d4ad4a1	0.049519185
11	0xbd9a7c1b	-0.075432025
12	0x3db3b060	0.08773875
13	0x3d8744c3	0.06604912
14	0xbcd0c4bd	-0.025484437
15	0xbc8875ef	-0.016657798
16	0x3da40c7e	0.08010195
17	0x3dc0a029	0.09405548
18	0x3c16ed9e	0.009211926
19	0x3c9db51f	0.019251404
20	0xbd389587	-0.045064475
21	0xbd3a309d	-0.045456517
22	0xbb62222e	-0.0034505236
23	0x3db98422	0.090584055
24	0xbdcb4d33	-0.09926834
25	0xbdbf7924	-0.093492776
26	0x3ccbc697	0.024874968
27	0xbd497f10	-0.049193442
28	0xbbeda07a	-0.0072517963
29	0x3dc54426	0.09632139
30	0x3deee3f3	0.116645716
31	0x3d17b3d5	0.037036736
32	0x3dd7d004	0.10537723
33	0xbded1e62	-0.11578061
34	0x3de565be	0.112010464
35	0xbd4d0f38	-0.05006334
36	0x3de128d4	0.109941155
37	0xbd8b5749	-0.06803758
38	0xbdd436a7	-0.103619866
39	0x3c13d4c3	0.009022894
40	0xbcc07ef3	-0.023498034
41	0xbd3579ce	-0.044305615
42	0x3ce9a956	0.028523128
43	0xbd19d0fc	-0.03755282
44	0x3d9db9dd	0.07701466
45	0x3de04d47	0.109522395
46	0xbd32c6b9	-0.043646548
47	0x3d23fba4	0.040034905
48	0x3d7d16bb	0.061789256
49	0xbdcb6283	-0.09930899
50	0xbdd8b002	-0.10580446
51	0x3db8df5f	0.0902698
52	0xbd0d2189	-0.03445581
53	0xbd451c26	-0.048122548
54	0xbc3bde81	-0.011466623
55	0xbdf39d16	-0.11895196
56	0xbd5b8bff	-0.053600308
57	0xbda03989	-0.07823474
58	0xbcc88087	-0.02447535
59	0x3de73e30	0.11291158
60	0xbd3049c9	-0.043039117
61	0x3de06128	0.10956031
62	0x3d85f5bf	0.06541013
63	0x3de2598f	0.11052238
64	0xbd085150	-0.03328067
65	0xbdf29614	-0.118450314
66	0xbda4e9f8	-0.080524385
67	0xbdbe02e6	-0.092778966
68	0xbd2cea34	-0.04221554
69	0xbdd2d9ec	-0.102954715
70	0xbd53eaba	-0.051737525
71	0xbd97d5d4	-0.07413831
72	0x3dbf8cd6	0.09353034
73	0xbde45458	-0.111489
74	0x3d51e869	0.051247034
75	0x3d8efbe2	0.069816366
76	0xbdda2356	-0.10651271
77	0xbd14741a	-0.036243536
78	0xbd765739	-0.060141776
79	0x3ddd8a55	0.108174
80	0xbd923ff9	-0.07141108
81	0x3e18bafb	0.14915077
82	0x3a12e305	0.00056032866
83	0x3d91aef4	0.07113448
84	0x3d8b6a3a	0.068073705
85	0x3db52432	0.08844794
86	0x3e188396	0.14893946
87	0x3d815f94	0.06317058
88	0x3c872103	0.016495233
89	0xbd1a6e6d	-0.037702966
90	0x3dd635f8	0.104595125
91	0xbc894921	-0.016758503
92	0xbc66c64e	-0.014085365
93	0x3d33a24c	0.04385595
94	0x3d67c332	0.056582637
95	0xbd926d4a	-0.071497515
96	0xbcea549f	-0.028604804
97	0xbdbcde9c	-0.09222147
98	0xbd1e63d7	-0.038669433
99	0xbbeb7e67	-0.007186699
100	0x3ccdad02	0.02510691
101	0xbd5ee01e	-0.054412954
102	0xbd0cc7e4	-0.034370318
103	0x3d764eac	0.06013362
104	0xbd251aba	-0.04030869
105	0x3d4305fa	0.04761312
106	0xbda240d6	-0.07922523
107	0xbd887950	-0.066637635
108	0x3e2fc9b7	0.17166792
109	0xbd9d84be	-0.07691334
110	0x3c608a60	0.013704866
111	0xbd86eb34	-0.0658783
112	0xbda205bc	-0.0791125
113	0xbc9460b7	-0.018112523
114	0x3dd95ce4	0.106134206
115	0x3c97174a	0.018443722
116	0x3cd7f242	0.026360635
117	0x3bef5936	0.007304336
118	0xbde736ed	-0.11289773
119	0xbd983ecf	-0.07433855
120	0x3dadbacc	0.08482894
121	0xbd89f632	-0.06736411
122	0xbac2e00a	-0.0014867794
123	0x3d319ce8	0.043362528
124	0x3e1790cb	0.14801328
125	0xbd370f02	-0.044692047
126	0xbc78dd92	-0.015189545
127	0x3dd78602	0.10523607
128	0x3b51631a	0.0031949938
129	0x3de66f6e	0.11251722
130	0xbd66ebb9	-0.056377146
131	0x3d8b4717	0.06800669
132	0xbd97ce37	-0.07412379
133	0xbdd1e503	-0.10248759
134	0x3da721c0	0.08160734
135	0x3c57143f	0.013127386
136	0x3c82896d	0.01593467
137	0xbd77b670	-0.06047672
138	0xbd6e5e86	-0.058195613
139	0x3da1e94e	0.079058275
140	0x3d82f22b	0.06393846
141	0x3cec12b6	0.028817516
142	0xbe078345	-0.13233669
143	0xbde7b022	-0.113128915
144	0xbd1abd2e	-0.037778072
145	0x3c9f76c8	0.019465819
146	0x3d76a88e	0.06021934
147	0xbd6b5857	-0.057457294
148	0x3c26d40b	0.010182391
149	0x3da19f13	0.07891669
150	0x3c599a5d	0.013281432
151	0xbd593343	-0.053027403
152	0x3d5bc2da	0.05365262
153	0x3cedee04	0.029044159
154	0xbdc0a711	-0.094068654
155	0x3d856b38	0.06514591
156	0x3d97e6ae	0.074170455
157	0xbd90a6ab	-0.070630394
158	0xbdab0b8a	-0.0835181
159	0x3d172041	0.036895994
160	0x3d90da99	0.07072944
161	0x3d85df50	0.06536734
162	0x3d066af4	0.032816842
163	0xbd74eac7	-0.059794214
164	0x3ccd944a	0.025095124
165	0x3d8c460e	0.06849299
166	0x3c8b7d04	0.017027386
167	0x3dd17f5d	0.10229371
168	0xbc8d4079	-0.017242657
169	0x3d91ec63	0.07125165
170	0xbdddb4ae	-0.108254775
171	0xbd83cf04	-0.064359695
172	0xbb86e80e	-0.0041170185
173	0xbdab5e2c	-0.08367571
174	0xbc50bb17	-0.012739918
175	0x3d542e73	0.05180211
176	0x3dc14bf9	0.09438319
177	0xbd89d1d4	-0.06729475
178	0xbc2ad62f	-0.010427042
179	0x3c25af06	0.01011253
180	0xbe0123c5	-0.12611301
181	0xbd8231ff	-0.06357192
182	0xbdaf31a6	-0.085543916
183	0xbdcdbc48	-0.100456774
184	0x3dcf4b9d	0.10121844
185	0x3b974354	0.0046161804
186	0xbb7e5d03	-0.0038812764
187	0xbc93c6f2	-0.0180392
188	0x3d166620	0.036718488
189	0xbddf9c81	-0.109185226
190	0xbd8d2aa6	-0.068929
191	0xbd9ac9b8	-0.07558006
192	0x3db70c9c	0.08937952
193	0x3c36e1d6	0.011162242
194	0xbbfa91d7	-0.00764678
195	0x3d912fc0	0.07089186
196	0x3d9a8701	0.07545281
197	0xbdc81971	-0.097704776
198	0x3c99df60	0.018783271
199	0xbd9c0ac8	-0.07619244
200	0xbaf94109	-0.0019016574
201	0xbdef2d6f	-0.11678588
202	0xbd0544cd	-0.032536317
203	0x3d9acda8	0.07558757
204	0xbde5acc0	-0.1121459
205	0xbe01fe42	-0.12694648
206	0x3dae36aa	0.0850652
207	0x3d523e0e	0.05132871
208	0xbdf741c5	-0.120730914
209	0xbdf26745	-0.11836103
210	0x3d4c385c	0.049858436
211	0xbc8bc2ae	-0.017060604
212	0xbbb279a1	-0.005446628
213	0xbd09a937	-0.03360864
214	0xbda1a7f5	-0.078933634
215	0x3dace587	0.08442216
216	0xbc7827c7	-0.015146202
217	0x3e0410af	0.1289699
218	0xbd3f6989	-0.046731506
219	0x3d9c04a4	0.07618073
220	0xbc87c98e	-0.016575601
221	0x3d889fca	0.06671102
222	0x3d0eb1d1	0.034837548
223	0xbe10aef1	-0.14129235
224	0xbca906f9	-0.020633208
225	0xbc20fea0	-0.009826332
226	0xbdc40477	-0.09571164
227	0x3dd4e82c	0.10395846
228	0x3d84a6d5	0.06477133
229	0xbd8bfc96	-0.06835286
230	0xbdabc503	-0.083871864
231	0xbd5dccba	-0.05415032
232	0x3db41b53	0.08794274
233	0xbd35b065	-0.044357676
234	0xbcb878d5	-0.022518555
235	0x3d7bd21b	0.06147967
236	0x3e1287dc	0.14309639
237	0xbc60ae23	-0.013713392
238	0x3e071da0	0.13194895
239	0x3d7dc41c	0.061954603
240	0xbe0b83aa	-0.13624445
241	0xbcfdc555	-0.030977884
242	0x3c526ff5	0.012844075
243	0x3e0d8ba7	0.13822804
244	0xbd0c372e	-0.03423231
245	0xbde5074f	-0.11183035
246	0x3c138b4d	0.00900538
247	0xbdba9dab	-0.09112104
248	0x3dcce751	0.100050576
249	0x3d7d3db8	0.061826438
250	0x3d5a97c2	0.053367384
251	0x3d8e6c61	0.069542654
252	0xbd8711f3	-0.065952204
253	0x3d31116c	0.043229505
254	0xbc68bf34	-0.014205743
255	0x3c7cc044	0.015426699

bias f4 [70]
0	0xbdc9e733	-0.09858551
1	0xbd117ac3	-0.035517465
2	0xbdd5cead	-0.10439811
3	0xbd9519ac	-0.07280287
4	0x3e03a1e2	0.12854722
5	0x3d3fe64d	0.04685049
6	0x3e2f7daa	0.17137781
7	0x3cc41ca9	0.023939447
8	0x3d4854ed	0.048909117
9	0x3e057c8a	0.13035789
10	0xbd6de2c8	-0.058077604
11	0x3d916fa2	0.071013704
12	0xbd1f4d25	-0.03889193
13	0x3e1b687f	0.15176581
14	0x3dac834c	0.084234804
15	0x3d6aeb81	0.0573535
16	0xbc27e876	-0.010248294
17	0x3e09ed64	0.13469464
18	0xbc7c04bf	-0.015381991
19	0xbdec7bad	-0.11547027
20	0x3e00692f	0.12540124
21	0xbce0a190	-0.027420789
22	0x3da42c0e	0.08016215
23	0xbc74b4dc	-0.014935698
24	0xbd398f5c	-0.045302734
25	0x3deb0fb3	0.11477604
26	0x3e01b4bf	0.12666605
27	0xbe0f51a6	-0.1399599
28	0x3daef998	0.085437
29	0x3c82e25a	0.015977073
30	0x3d24a005	0.04019167
31	0xbdb826a0	-0.08991742
32	0xbd817ec2	-0.06323005
33	0xbd289d42	-0.041165598
34	0x3d04fa53	0.03246529
35	0x3da20026	0.079101846
36	0x3dfc33e2	0.12314583
37	0x3d85204e	0.06500302
38	0xbe0c6c63	-0.13713221
39	0x3dda4032	0.106567755
40	0x3e020047	0.12695418
41	0x3dddb275	0.108250536
42	0xbdc44d13	-0.09585013
43	0x3dc3793e	0.095446095
44	0xbd75f689	-0.060049567
45	0x3d602531	0.05472297
46	0x3a4f69fd	0.0007912217
47	0x3d883095	0.06649891
48	0x3d8bd770	0.06828201
49	0x3cc7e5eb	0.024401626
50	0xbdfd0467	-0.12354355
51	0x3e0b0a82	0.13578227
52	0x3e11ce37	0.14238821
53	0x3d47c5ba	0.04877255
54	0xbdcf4413	-0.10120406
55	0x3e04e54e	0.12978098
56	0x3b14b55c	0.0022691106
57	0x3de7918f	0.1130706
58	0xbdf547db	-0.11976596
59	0xbd57e0b2	-0.05270452
60	0xbc656e22	-0.0140033085
61	0xbdc160f6	-0.09442322
62	0xbdab42b6	-0.083623335
63	0x3dfabdda	0.122432426
64	0x3db5afa2	0.0887139
65	0xbde93a6a	-0.11388095
66	0x3dc65ad9	0.096852966
67	0xbc232aa6	-0.009958899
68	0x3da09003	0.07839968
69	0x3b9a71b1	0.00471326

weight f4 [70, 70]
0	0x3de01162	0.109408155
1	0x3dce8e09	0.10085685
2	0xbcf7d7f8	-0.03025435
3	0x3d94e1dc	0.07269642
4	0x3d30392f	0.043023285
5	0x3d9a2941	0.075274
6	0xbcaad10b	-0.020851633
7	0x3cc91fb0	0.024551243
8	0x3d3482e1	0.04407013
9	0xbdbf5cb1	-0.09343851
10	0xbcf48258	-0.029847309
11	0xbda47334	-0.08029786
12	0xbda7754b	-0.08176669
13	0xbb23c5da	-0.0024989755
14	0x3ce41476	0.027841788
15	0x3d752891	0.05985314
16	0x3c2f73e5	0.010708784
17	0xba4bbfa3	-0.00077723915
18	0xbd9e7fff	-0.07739257
19	0xbbb9d9d0	-0.005671717
20	0xbcd6d9e9	-0.026226955
21	0x3d7893bc	0.060687765
22	0x3d2bf684	0.041983142
23	0x3d329bc9	0.0436056
24	0x3d553ac7	0.052058008
25	0x3dc286e6	0.09498386
26	0x3d967c61	0.07347942
27	0x3d21ad1f	0.03947174
28	0x3d21bd3e	0.039487116
29	0x3d86d0b3	0.06582775
30	0x3c64879b	0.0139483465
31	0x3d914984	0.070941
32	0x3e25543c	0.16145414
33	0x3d969f11	0.07354558
34	0x3d8ca84e	0.06868039
35	0xbc21c72d	-0.009874147
36	0x3d04cb9d	0.032420743
37	0x3d713685	0.058889885
38	0xbd892449	-0.06696374
39	0x3d981e69	0.07427675
40	0x3cafc5a1	0.021456541
41	0xbd34024c	-0.043947503
42	0xbdf22c15	-0.11824814
43	0xbdc3c0f4	-0.09558287
44	0x3dbedfd4	0.093200356
45	0xbd16f024	-0.03685011
46	0xbdf40c60	-0.11916423
47	0x3d85c58a	0.06531818
48	0xbdf475bd	-0.11936519
49	0x3def3212	0.11679472
50	0x3d8c3119	0.06845302
51	0x3d337103	0.04380895
52	0xbdbfba5c	-0.09361717
53	0xbcb3182a	-0.021862108
54	0x3d84b467	0.064797215
55	0x3e155d83	0.14586453
56	0x3d9e87c5	0.0774074
57	0x3df78ddc	0.120876044
58	0x3d32558f	0.043538626
59	0xbda26a63	-0.07930448
60	0xbcd88c05	-0.026433954
61	0x3d223cfd	0.039608944
62	0x3d2beb7c	0.041972622
63	0xbc82b0c7	-0.015953435
64	0xbd8789da	-0.0661809
65	0x3c29da69	0.010367014
66	0xbd6781ae	-0.056520157
67	0xbded03ac	-0.11572966
68	0xb8a49c4b	-7.849241e-05
69	0x3e024982	0.12723354
70	0xbdad82fe	-0.084722504
71	0x3b3ad445	0.002850787
72	0x3daf0e13	0.08547606
73	0xbda2c269	-0.07947237
74	0x3d7fdf3a	0.062468745
75	0x3c90546e	0.017618384
76	0x3d43f924	0.04784502
77	0xbdb6fe53	-0.08935227
78	0xbc5bbd38	-0.0134118125
79	0xbca7b5c4	-0.020472415
80	0x3d4bf1fb	0.049791317
81	0xbd361930	-0.044457614
82	0x3d8504f6	0.06495087
83	0x3c5399b2	0.012915062
84	0x3d705660	0.058676124
85	0x3d60a67d	0.054846276
86	0xbcac86f3	-0.021060443
87	0xbd1f4674	-0.03888555
88	0x3df50953	0.11964669
89	0xbd293229	-0.041307602
90	0x3d63e3c3	0.055637132
91	0xbda57dd0	-0.080806375
92	0x3d964dc5	0.07339052
93	0x3df315bc	0.1186938
94	0x3d141812	0.036155768
95	0xbcb847ed	-0.022495234
96	0xbdec42ff	-0.11536216
97	0x3c76cf6e	0.0150641035
98	0x3cc3688c	0.023853563
99	0x3d8b8076	0.06811611
100	0xbd54952f	-0.051900085
101	0xbdd1d864	-0.10246351
102	0xbdb91e9d	-0.09039042
103	0x3dd606ea	0.104505375
104	0x3cfa94e7	0.03058858
105	0xbdf758e5	-0.12077502
106	0xbce55e82	-0.027999166
107	0x3caedd9c	0.021345906
108	0x3d5edac2	0.054407842
109	0xbe081272	-0.13288286
110	0xbdbc8a45	-0.0920606
111	0x3dc872e4	0.09787539
112	0x3dd95a7b	0.10612961
113	0x3c65e0b2	0.014030622
114	0xbdd3302b	-0.10311922
115	0xbd9e17c4	-0.07719377
116	0x3d2f4c1a	0.042797185
117	0x3d01e3cb	0.03171138
118	0x3dcd6828	0.10029632
119	0xbc33306f	-0.01093684
120	0x3d97d0af	0.0741285
121	0xbd433b65	-0.047664065
122	0xbda24cde	-0.079248175
123	0xbdbffdbd	-0.093745686
124	0x3dac2036	0.08404581
125	0xbd9ab72b	-0.07554468
126	0x3da42026	0.08013944
127	0x3d755ce7	0.05990305
128	0x3dea7f47	0.114500575
129	0xbca556db	-0.020183017
130	0x3d2a1289	0.041521583
131	0x3d331e55	0.0437301
132	0x3bde6043	0.0067863776
133	0xbd425c15	-0.047451098
134	0x3d4a0627	0.049322274
135	0x3ba9887b	0.0051737404
136	0x3dde93be	0.10868023
137	0xbddc97af	-0.10771119
138	0xbde2e956	-0.110796615
139	0x3d340fb1	0.043960277
140	0xbd0e8371	-0.03479332
141	0xbd50f8bf	-0.051018473
142	0xbd5a2576	-0.05325838
143	0x3e10a1ea	0.14124265
144	0x3df1276f	0.117750995
145	0x3d32e365	0.04367389
146	0xbd6c2a8c	-0.057657763
147	0x3cd6d9d3	0.026226914
148	0xbc3dde7e	-0.011588691
149	0xbe00d2de	-0.1258044
150	0x3e2eb4e4	0.17061192
151	0x3e086bea	0.13322416
152	0xbd0c84ca	-0.034306325
153	0x3dcd988a	0.1003886
154	0xbc5c63b0	-0.013451502
155	0xbd6c0f17	-0.05763158
156	0xbd85f826	-0.06541471
157	0x3dcbb98d	0.099475004
158	0xbe01f856	-0.12692389
159	0x3e24811c	0.16064876
160	0x3d8e1fba	0.06939645
161	0xbca49cdd	-0.02009433
162	0xbc485895	-0.012228151
163	0x3c8b012f	0.016968338
164	0x3d682bda	0.056682445
165	0xbadb16b4	-0.001671514
166	0x3e153731	0.14571835
167	0xbd1b230f	-0.03787523
168	0xbd8333fc	-0.064063996
169	0xbd71b495	-0.059010107
170	0xbd9d34b3	-0.07676067
171	0x3d6dc68d	0.05805068
172	0x3d8f3f9a	0.06994553
173	0xbd5ac1ee	-0.053407602
174	0x3d1826ad	0.03714626
175	0x3ca555d1	0.020182522
176	0xbc0a4205	-0.008438592
177	0xbde0c8ef	-0.10975825
178	0xbdc737ed	-0.09727464
179	0x3e3e3893	0.18576269
180	0x3d059c80	0.032619953
181	0xbccb7f0d	-0.024840856
182	0xbd057f15	-0.032591898
183	0xbd055699	-0.03255329
184	0xbc66ed9a	-0.014094735
185	0x3d499d7b	0.04922245
186	0xbe2ed845	-0.17074688
187	0x3e4942b6	0.19654354
188	0xbe1a7974	-0.15085393
189	0xbde989c8	-0.11403233
190	0xbe06f639	-0.13179864
191	0xbd24a061	-0.04019201
192	0xbc4e9708	-0.012609251
193	0x3db7691b	0.08955594
194	0xbd834bfb	-0.064109765
195	0xbd485947	-0.048913267
196	0x3d6a0d9d	0.05714189
197	0xbd823b02	-0.06358911
198	0xba4336e6	-0.000744684
199	0xbd89caba	-0.0672812
200	0xbdb654ba	-0.08902879
201	0x3de9609a	0.113953784
202	0x3d828ce5	0.0637453
203	0x3dab5d5a	0.08367415
204	0x3dd139b0	0.10216081
205	0xbd438921	-0.0477382
206	0xbd851dca	-0.064998224
207	0x3d25d19e	0.04048311
208	0x3da285b1	0.07935656
209	0x3d736f17	0.059432115
210	0xbca44ed0	-0.020057112
211	0xbd102948	-0.03519562
212	0xbb1955f0	-0.002339717
213	0xbd6ab80b	-0.057304423
214	0xbd9be8e7	-0.07612782
215	0x3cddfcb5	0.02709804
216	0x3e0d9c4c	0.13829154
217	0x3dfb9c71	0.12285698
218	0x3d7e8505	0.062138576
219	0x3d959390	0.07303536
220	0xbd8bb285	-0.06821159
221	0xbe440aba	-0.19144717
222	0x3e089445	0.1333781
223	0xbd81cfa6	-0.06338434
224	0x3d1f6b45	0.03892066
225	0x3e14761d	0.14498182
226	0xbdfc03b2	-0.12305392
227	0xbd2f333e	-0.042773478
228	0xbdce1cbe	-0.10064076
229	0xbda03503	-0.07822611
230	0x3e13f282	0.14447978
231	0xbd4e6e02	-0.05039788
232	0x3e213fab	0.15746944
233	0x3cb0ed19	0.021597432
234	0xbdd49a13	-0.1038095
235	0x3dffa06d	0.12481771
236	0xbcf08fdf	-0.029365478
237	0xbcdd76e0	-0.027034223
238	0x3cf10173	0.029419636
239	0xbde08ae5	-0.10963992
240	0xbdaddd36	-0.08489458
241	0xbd919875	-0.07109157
242	0xbc921a09	-0.01783468
243	0x3cad307d	0.021141285
244	0xbd987010	-0.07443249
245	0x3d85c4dd	0.06531689
246	0xbd0fe777	-0.03513285
247	0x3e389b77	0.18028055
248	0x3d11e36d	0.03561728
249	0x3d86323c	0.0655255
250	0xbd91b94e	-0.07115422
251	0x3dc4a3e9	0.09601576
252	0x3ce7a20a	0.028275508
253	0x3d6eb33e	0.058276407
254	0xbd9ae489	-0.07563121
255	0x3d178510	0.036992133

bias f4 [70]
0	0x3d5fdece	0.054655842
1	0xbd6bee90	-0.057600558
2	0xbcea1edb	-0.028579166
3	0x3da4ee9e	0.08053325
4	0x3e0a5a88	0.13511097
5	0x3e1569d6	0.14591154
6	0xbcd26074	-0.025680758
7	0x3db6b14e	0.08920537
8	0x3c9c63b0	0.019090503
9	0x3e07930e	0.1323969
10	0xbe045963	-0.12924723
11	0x3cc37dd8	0.023863718
12	0x3c9a2ce1	0.018820228
13	0x3b7c1434	0.003846419
14	0xbdab23f2	-0.083564654
15	0xbd41b3c6	-0.047290586
16	0xbd84eddd	-0.06490681
17	0x3ce03dd4	0.027373232
18	0xbb9edb2e	-0.0048479056
19	0x3dd26c8d	0.10274611
20	0x3ccb43dd	0.024812633
21	0xbd9cfbc4	-0.07665208
22	0x3d29971e	0.041403882
23	0xbc073845	-0.008253162
24	0x3d2a2db8	0.041547507
25	0x3d8fd915	0.07023827
26	0x3d550a22	0.052011617
27	0xbc9e4582	-0.019320253
28	0x3e131a20	0.14365435
29	0x3d87b986	0.06627183
30	0x3d5ec120	0.054383397
31	0x3d950349	0.07276017
32	0xbdfa3399	-0.12216873
33	0xbb8287e4	-0.0039834846
34	0xbdec5587	-0.115397505
35	0xbd9a854d	-0.07544956
36	0xbddfb10e	-0.109224424
37	0x3a8f3262	0.001092505
38	0xbd1a1164	-0.03761424
39	0xbd2f2782	-0.042762287
40	0xbd87126d	-0.06595311
41	0xbd3e11b3	-0.046403598
42	0xbc935e44	-0.017989285
43	0xbd6a9a07	-0.0572758
44	0x3ccc701f	0.024955807
45	0xbd697745	-0.05699851
46	0xbd32a44d	-0.04361372
47	0x3c0ec198	0.0087131485
48	0xbc89f457	-0.016840143
49	0x3df509a0	0.119647264
50	0xbd9f2b5f	-0.07771944
51	0x3d404881	0.046944145
52	0x3db9382a	0.090439156
53	0x3d8d53f8	0.069007814
54	0x3ccab8b5	0.024746278
55	0x3dc7858c	0.09742269
56	0x3dc45238	0.095859945
57	0x3dba43c7	0.09094959
58	0xbcf7cca0	-0.03024894
59	0x3d47f4de	0.048817508
60	0x3d95f187	0.07321458
61	0x3dab2681	0.083569534
62	0x3e02d0bb	0.12774937
63	0x3d4edc99	0.050503347
64	0xbd85ad49	-0.06527192
65	0xbd9b3587	-0.07578569
66	0x3dfed153	0.12442269
67	0xbdb198d3	-0.08671727
68	0x3d62cd83	0.055371772
69	0xbd8137ad	-0.063094474

weight f4 [10, 70]
0	0x3ddc9485	0.10770515
1	0xbb5e8ee0	-0.0033959672
2	0x3ce74b3b	0.028234115
3	0x3bd92e10	0.0066278055
4	0xbdca072c	-0.09864649
5	0xbdbe2313	-0.092840336
6	0x3e1f1ebe	0.15539071
7	0xbe4592ea	-0.19294325
8	0xbd19896c	-0.03748457
9	0x3dd223a2	0.10260703
10	0x3e3e5b5d	0.1858954
11	0xbe6f0ca0	-0.2334466
12	0x3e13133d	0.14362808
13	0x3d863dc9	0.06554753
14	0xbd2e0e69	-0.04249421
15	0xbca4910f	-0.0200887
16	0xbda6d06f	-0.08145224
17	0xbd810ce0	-0.06301284
18	0xbe483f04	-0.19555289
19	0xbe0214a9	-0.12703194
20	0xbcec2649	-0.02882685
21	0x3e043e50	0.12914395
22	0xbe4ff4ec	-0.20308274
23	0x3d26e89a	0.04074917
24	0x3d67442d	0.056461502
25	0xbd839018	-0.06423968
26	0xbde8be1f	-0.11364388
27	0xbdc10b31	-0.09425963
28	0xbd2eafe2	-0.042648204
29	0x3e1fab33	0.15592651
30	0xbd23bb3b	-0.03997348
31	0xbdf1a851	-0.11799682
32	0xbb840a80	-0.004029572
33	0xbe0eb28e	-0.139353
34	0xbc7d6e07	-0.015468127
35	0xbdcca0f5	-0.099916376
36	0xbdcf93ef	-0.10135638
37	0xbd86ef80	-0.0658865
38	0xbd68d310	-0.05684191
39	0x3de97a85	0.11400322
40	0xbc27acc4	-0.010234062
41	0x3c8fd70f	0.017558603
42	0x3d551bc1	0.05202842
43	0xbdfcc21e	-0.123417124
44	0x3dd2f65d	0.10300896
45	0xbe3ed9dd	-0.18637796
46	0xbcb59e74	-0.022170283
47	0x3d968a1d	0.07350562
48	0x3d43d1dd	0.047807563
49	0xbda2ecf5	-0.07955352
50	0x3de310cc	0.11087188
51	0x3d8d422f	0.06897389
52	0x3ab662e9	0.0013914976
53	0xbde7fc9c	-0.11327478
54	0xbd699024	-0.05702223
55	0xbdcd679d	-0.10029528
56	0xbdfdb272	-0.12387551
57	0xbd3cb76d	-0.046073366
58	0xbe3be822	-0.1835027
59	0xbde27cbe	-0.11058949
60	0x3d3cc036	0.046081744
61	0x3d199c25	0.037502427
62	0xbdd296d0	-0.102826715
63	0x3db3f50d	0.08786974
64	0xbd9f3aca	-0.07774885
65	0x3de9b9d3	0.11412396
66	0x3b65e92d	0.003508161
67	0x3c1385f0	0.009004101
68	0xbd17f126	-0.03709521
69	0xbddb1e30	-0.10699117
70	0xbd2af84d	-0.041740704
71	0xbdce51c6	-0.10074191
72	0xbd44a46e	-0.048008375
73	0xbdbef57d	-0.09324167
74	0xbdd8bc65	-0.105828084
75	0x3d243298	0.040087312
76	0xbd8fd9ac	-0.070239395
77	0x3b1df72f	0.0024103632
78	0xbdc1d409	-0.094642706
79	0xbc82f0a4	-0.015983887
80	0x3db9769b	0.09055825
81	0x3dbbfe24	0.09179333
82	0xbded624c	-0.11591014
83	0xbd8b6d59	-0.06807966
84	0xbbbba59e	-0.00572653
85	0xbc994e23	-0.018714016
86	0x3d23e376	0.040011846
87	0x3d543955	0.05181249
88	0x3da51fd2	0.0806271
89	0x3d7283b1	0.059207622
90	0xbd36fd66	-0.044675253
91	0x3d812da1	0.06307531
92	0xbde9f51d	-0.11423705
93	0xbd92402c	-0.07141146
94	0xbd9f4ef1	-0.07778729
95	0xbb86ed57	-0.0041176486
96	0x3c914476	0.01773284
97	0x3d97ea97	0.07417791
98	0x3c832eb2	0.016013477
99	0x3c9c7dbd	0.019102925
100	0xbd4bf33b	-0.04979251
101	0xbd0d3a7c	-0.034479603
102	0xbd138fd4	-0.036025837
103	0x3b30fdaf	0.0027006676
104	0x3dc69ed9	0.096982665
105	0x3c786851	0.01516159
106	0xbd8dbfef	-0.06921374
107	0x3cc34b9b	0.023839762
108	0xbd69fb47	-0.057124402
109	0xbbd7dfe8	-0.006587971
110	0x3dc9281a	0.09822102
111	0x3d46c6ef	0.04852956
112	0x3d78f62a	0.060781635
113	0xbd704acb	-0.058665078
114	0x3da03861	0.078232534
115	0x3d3341b6	0.04376384
116	0xbddf2bbc	-0.108970135
117	0xbcddb035	-0.027061561
118	0xbdaa497b	-0.083147965
119	0xbdbcf09c	-0.0922558
120	0x3ca7a539	0.020464526
121	0xbd808f25	-0.06277303
122	0x3c3c1be3	0.011481258
123	0xbd2b46e3	-0.04181565
124	0xbd6e1978	-0.058129758
125	0xbd984770	-0.074355006
126	0xbdabf42d	-0.08396182
127	0x3dc8ef8b	0.09811314
128	0x3ddbe314	0.10736671
129	0xbd1d9084	-0.0384679
130	0xbdf03f26	-0.117307946
131	0xbd883f9b	-0.06652757
132	0xbc390657	-0.011293015
133	0x3dba9e11	0.0911218
134	0xbcf553e3	-0.029947227
135	0x3d347305	0.044055004
136	0x3dc4174e	0.095747575
137	0xbd8573a9	-0.06516201
138	0xbd91ecd2	-0.07125248
139	0xbdc6379e	-0.09678577
140	0x3d205874	0.039146855
141	0xbb6b9c1a	-0.0035951198
142	0xbcf4f751	-0.029903086
143	0x3d37a56e	0.0448355
144	0x3d4c3190	0.049851954
145	0xbcb60418	-0.022218749
146	0x3dc78790	0.09742653
147	0xbd6e13c3	-0.058124315
148	0x3d0cc190	0.034364283
149	0xbd22f147	-0.03978088
150	0xbd6fdbc6	-0.0585592
151	0xbdefffd9	-0.11718721
152	0x3d4e8a06	0.0504246
153	0xbdddb750	-0.1082598
154	0xbccacd2d	-0.024756039
155	0xbd9fdf3a	-0.07806249
156	0x3ca7e893	0.020496642
157	0xbbba026b	-0.005676558
158	0xbd96ecca	-0.07369383
159	0x3c0d452b	0.008622448
160	0xbdebe397	-0.11518019
161	0xbd9d2a9a	-0.07674141
162	0x3db0240a	0.08600624
163	0x3dc606f9	0.09669299
164	0x3d57053c	0.052495226
165	0xbcd78c22	-0.026311938
166	0xbdad162d	-0.08451495
167	0x3da67625	0.08128003
168	0xbd9f340f	-0.07773601
169	0x3d2d470c	0.042304084
170	0x39068d88	0.0001283196
171	0x3d58f57b	0.052968483
172	0xbd70e658	-0.058813423
173	0xba8c5dba	-0.0010709085
174	0xbdad668c	-0.08466825
175	0x3d2a9f45	0.041655798
176	0x3b073a5d	0.0020634152
177	0xbdb91104	-0.090364486
178	0xbdf72fe1	-0.12069679
179	0xbd973bef	-0.07384478
180	0xbdf63dae	-0.12023483
181	0x3c79e9e7	0.015253521
182	0xbdacd682	-0.084393516
183	0xbe03f1f1	-0.12885262
184	0xbd6ce482	-0.05783511
185	0x3daffc29	0.085930176
186	0x3d4f33bd	0.05058645
187	0xbdf65d51	-0.120295174
188	0x3d2a6bd1	0.041606728
189	0x3d5954a3	0.05305923
190	0xbd9d2dcc	-0.07674751
191	0xbc9e1450	-0.019296795
192	0xbdf09d32	-0.117487326
193	0x3dac2df1	0.084072
194	0xbc25d48b	-0.010121475
195	0x3d320227	0.043459084
196	0xbdb281bd	-0.08716152
197	0xbc95c07d	-0.018280262
198	0x3ce4bd17	0.027922196
199	0xbbea8275	-0.007156665
200	0x3d9adf64	0.0756214
201	0xbda39914	-0.07988182
202	0xbd61eaad	-0.055155445
203	0xbd86e045	-0.06585745
204	0xb9cb4379	-0.00038769448
205	0xbd8b8297	-0.068120174
206	0xbad48e75	-0.0016216772
207	0x3d584fcb	0.05281047
208	0x3bb6afed	0.005575171
209	0x3ce88692	0.02838448
210	0x3d8eb4c5	0.06968073
211	0x3dc9fc3c	0.09862563
212	0x3d64df75	0.055877168
213	0xbd5d51a8	-0.05403295
214	0xbd987dc7	-0.07445865
215	0xbe152f6e	-0.14568874
216	0xbde2587c	-0.11052033
217	0xbdd9f5c4	-0.10642579
218	0x3e103ede	0.14086482
219	0x3d087b04	0.03332044
220	0xbd88b364	-0.06674841
221	0xbce880b0	-0.028381675
222	0x3df49fe8	0.11944562
223	0x3df4140a	0.11917885
224	0x3c9ef9f6	0.0194063
225	0xbd999930	-0.07499921
226	0xbd863322	-0.065527216
227	0x3dce44f1	0.10071743
228	0x3e1d95b8	0.15389144
229	0x3e2740c8	0.16333306
230	0xbcf64e0b	-0.03006651
231	0x3e05587c	0.13022035
232	0x3e22c624	0.15895897
233	0xbc4e524a	-0.012592861
234	0xbe0ef28f	-0.13959716
235	0x3cbbcdc6	0.022925269
236	0xbd00cf7b	-0.03144787
237	0xbdfdc0b5	-0.123902716
238	0x3df6cfee	0.12051378
239	0xbe5e6e1b	-0.2172169
240	0x3dfb293f	0.122637264
241	0x3dbfe7d5	0.0937039
242	0x3d7dfb8e	0.06200748
243	0x3db45f17	0.088071994
244	0x3cd0b354	0.025476135
245	0x3dd55d8b	0.104182325
246	0xbd181f4c	-0.037139222
247	0x3d86f38a	0.0658942
248	0xbd91540b	-0.07096108
249	0x3ca21d5c	0.01978939
250	0xbdd9b35c	-0.10629913
251	0xbe22a22d	-0.15882178
252	0x3cde3c4a	0.027128357
253	0x3e162418	0.14662206
254	0xbc87b724	-0.01656682
255	0xbe266fdf	-0.16253613
